exercise_11/exercise_code/tests/tensors/task_3/model_b.pt (torch, 88848 bytes, 4 tensors)

weights_q.weight f4 [36, 96]
0	0x3dbcaf79	0.09213156
1	0x3cffc761	0.031223001
2	0x3d07ef8f	0.033187445
3	0xbc947530	-0.018122286
4	0x3d20ee40	0.039289713
5	0xbd4ac090	-0.04950005
6	0xbdaf0f84	-0.08547881
7	0xbc8af5d7	-0.016962929
8	0xbd5eba65	-0.05437698
9	0xbd3630ed	-0.044480253
10	0x3bfbc087	0.007682863
11	0x3c2ace82	0.010425212
12	0x3ce97f48	0.028503075
13	0x3b9189dd	0.0044414834
14	0x3ccc4ed5	0.024939934
15	0xbd895e08	-0.06707388
16	0x3c723c8f	0.014784946
17	0x3cd837f7	0.026393874
18	0x3bb3ef5f	0.0054911817
19	0x3d8d3bdb	0.06896182
20	0x3dae4105	0.08508495
21	0xbd6491bf	-0.055803057
22	0x3d2c04ac	0.041996643
23	0x3d624a11	0.055246416
24	0x3d6419ed	0.055688787
25	0x3dc0019d	0.09375308
26	0xbcf81519	-0.030283498
27	0xbd474401	-0.048648838
28	0x3ce34e49	0.02774729
29	0x3d54240c	0.05179219
30	0xbb667183	-0.0035162873
31	0xbc96189c	-0.018322282
32	0x3da9343e	0.082619175
33	0xbdbc835a	-0.09204741
34	0x3d82d83a	0.06388898
35	0xbd81f699	-0.06345863
36	0xbc983352	-0.018579159
37	0xbd6dc40d	-0.058048297
38	0xbdb0c612	-0.08631529
39	0x3dbbd4d6	0.091714546
40	0x3d3172cf	0.04332238
41	0x3d6f6194	0.058442667
42	0x3d02937c	0.031878933
43	0x3c502c7b	0.0127059175
44	0xbd8d1be9	-0.06890089
45	0xbbdc9cde	-0.006732567
46	0xbc23d3f6	-0.009999266
47	0x3da7e385	0.08197693
48	0x3d2259e6	0.039636515
49	0xbc039aa4	-0.008032475
50	0xbd8524b7	-0.065011434
51	0x3d2eca97	0.042673673
52	0xbd28b8e6	-0.041191958
53	0x3dbcb4dc	0.09214184
54	0x3d9c9ed7	0.07647484
55	0xbdbbce17	-0.09170168
56	0x3da3dc91	0.08001054
57	0x3d373ab6	0.044733725
58	0x3d248c42	0.040172823
59	0xbc010857	-0.0078755235
60	0x3d9ca560	0.0764873
61	0x3cfa0876	0.030521613
62	0xbcf8e04d	-0.030380392
63	0xbd91dfae	-0.07122742
64	0x3be1a5b5	0.006886209
65	0xbc90f2dd	-0.017693931
66	0x3c45a468	0.012063123
67	0x3d4d2b08	0.050089866
68	0x3d9f593e	0.077806935
69	0xbc953b37	-0.018216712
70	0x3af0c5bd	0.0018369477
71	0xbd27352b	-0.04082219
72	0xbd3538a6	-0.044243477
73	0x3b8035d6	0.0039126677
74	0x3bda57ba	0.00666329
75	0x3c83695f	0.016041456
76	0xbda1d5b5	-0.079020895
77	0x3d237b9a	0.039912798
78	0xbb952a52	-0.004552164
79	0x3d43860d	0.047735263
80	0xbd6f79ff	-0.058465954
81	0x3d8c38fe	0.06846808
82	0x3d4ed597	0.050496664
83	0xbd403ab6	-0.04693099
84	0xbd8bd8a7	-0.068284325
85	0x3d3a0e13	0.04542358
86	0x3d98465b	0.07435294
87	0x3c4a691f	0.012354164
88	0xbcb895cc	-0.022532366
89	0xbd52e1ed	-0.05148499
90	0x3a14151f	0.0005648899
91	0x3dc3a77d	0.0955343
92	0xbd16c114	-0.036805227
93	0x3c455647	0.012044496
94	0x3db062df	0.08612608
95	0x3dafb228	0.085789025
96	0xbd1f2d89	-0.038861785
97	0xbd993852	-0.07481445
98	0x3d0cf886	0.034416698
99	0xbbcfae2d	-0.006337902
100	0xbd8d711d	-0.0690634
101	0xbdb20722	-0.08692767
102	0x3db7f3a7	0.0898202
103	0x3d8010f3	0.06253233
104	0x3cb369a5	0.021900961
105	0x3d2295cf	0.03969365
106	0x3d6f9f57	0.058501568
107	0xbd844e1e	-0.06460212
108	0xbd0e64e3	-0.03476418
109	0x3d4fb246	0.050707124
110	0xbd15d6d2	-0.03658182
111	0x37f4704d	2.913936e-05
112	0xbcfe73cb	-0.031061074
113	0x3d374ef8	0.044753045
114	0xbd12af89	-0.035811935
115	0x3dbf3405	0.09336094
116	0x3d0c4973	0.034249734
117	0xbd120058	-0.03564486
118	0x3d687f7a	0.056762196
119	0xbdb499f8	-0.0881843
120	0xbc601734	-0.013677407
121	0xbd09f06b	-0.033676546
122	0x3d5f41fc	0.054506287
123	0x3d0d384d	0.03447752
124	0x3d328c66	0.043590926
125	0x3d8c3ae2	0.068471685
126	0x3cc519dc	0.024060182
127	0xbcd29fce	-0.025710966
128	0x3da17e15	0.07885376
129	0x3d518f94	0.051162317
130	0xbda6debf	-0.08147954
131	0xbda7333c	-0.08164069
132	0x3d63cb94	0.05561407
133	0xbd5b7b30	-0.053584278
134	0xbd3899a6	-0.045068406
135	0xbb61081f	-0.0034337116
136	0x3d331a16	0.04372605
137	0xbda969b7	-0.08272117
138	0x3ccbc48a	0.02487399
139	0xbd4db77c	-0.050223812
140	0x3c9b695b	0.018971136
141	0xbd6ee235	-0.058321197
142	0xbd8d37f0	-0.06895435
143	0xbda2dc26	-0.07952146
144	0xbdcff142	-0.10153438
145	0x3daa20ba	0.08307023
146	0x3d1c41c4	0.038148656
147	0xbd8ba6b1	-0.06818903
148	0x3c431419	0.011906647
149	0x3dcc6127	0.09979468
150	0x3da5d7b5	0.080977835
151	0xbd764ccd	-0.060131837
152	0x3ba9bb4c	0.005179798
153	0xbd32911b	-0.043595415
154	0xbc86f94b	-0.016476294
155	0x3d111c81	0.035427574
156	0x3b4ab67c	0.0030931523
157	0x3d987935	0.074449934
158	0x3db33916	0.08751123
159	0xbd9ca338	-0.07648319
160	0xbce6b13a	-0.02816068
161	0x3d5f03b0	0.054446876
162	0x3cfdfb2e	0.03100356
163	0x3dcf9d13	0.101373814
164	0xbd28a857	-0.041176166
165	0x3cc1a0cb	0.023636242
166	0xbd882ee3	-0.06649568
167	0x3d8906f2	0.06690778
168	0x3af42a7d	0.0018628385
169	0x3d582ed4	0.052779034
170	0xbd8b03b0	-0.06787813
171	0x3d280848	0.041023523
172	0xbda78581	-0.08179761
173	0x3d96fb58	0.07372159
174	0xbdbe801b	-0.09301778
175	0x3c467f96	0.01211538
176	0x3d64a713	0.055823397
177	0x3d033ee9	0.032042418
178	0x3d98cafa	0.0746059
179	0x3d4df848	0.050285608
180	0xbd378e98	-0.044813722
181	0xbd98cd52	-0.07461037
182	0x3be5b9e7	0.0070106867
183	0x3d828920	0.06373811
184	0xbd21532d	-0.039385963
185	0xbdbe5ac2	-0.092946544
186	0x3d9632cc	0.073339075
187	0x3d0ce4b6	0.034397803
188	0xbd09b2bc	-0.03361772
189	0xbdc1c6ce	-0.09461747
190	0x3d46be51	0.048521344
191	0x3db38076	0.08764736
192	0xbd9611ce	-0.07327615
193	0xbdaae2bd	-0.08344028
194	0x3d56b13f	0.05241513
195	0xbda0dc62	-0.07854535
196	0x3ce2983b	0.02766048
197	0x3d6a0a13	0.057138514
198	0x3c2872dc	0.010281291
199	0xbdcf4616	-0.1012079
200	0x3d5ae22c	0.05343835
201	0xbd1f64d7	-0.038914528
202	0xbd47fc78	-0.048824757
203	0x3d5a6b45	0.053324956
204	0x3d83661c	0.0641596
205	0xbbfe69cb	-0.0077640763
206	0x3d4bf518	0.049794286
207	0x3d033319	0.032031152
208	0x3d4f9ad6	0.050684772
209	0x3d78497e	0.060616963
210	0xbd7a48c6	-0.06110456
211	0xbda93166	-0.08261375
212	0xbcbcbf7a	-0.023040522
213	0x3dba17fb	0.09086605
214	0x3b8102fb	0.003937123
215	0x3daa8a2d	0.08327136
216	0xbc2ca425	-0.010537182
217	0x3dbcec33	0.09224739
218	0x3d20ecab	0.039288204
219	0xbc194b20	-0.00935629
220	0x3da0cc5c	0.078514785
221	0xbcf37c17	-0.029722257
222	0xbbd27882	-0.006423057
223	0x3dc5bbd1	0.09654964
224	0xbc4471c3	-0.0119900135
225	0xbc991015	-0.018684426
226	0xbd5b2e94	-0.053511217
227	0x3d8bc83a	0.068252996
228	0x3daf66fd	0.08564565
229	0xbd9be297	-0.07611578
230	0xbdb685eb	-0.089122616
231	0xbd2a2c44	-0.04154612
232	0x3d8cd8ca	0.06877287
233	0xbdbac579	-0.09119696
234	0xbb39a606	-0.0028327717
235	0x3d8135fd	0.063091256
236	0x3d8fc3d2	0.07019772
237	0x3bac8658	0.0052650385
238	0xbbc3b0a9	-0.0059719873
239	0x3d7e7bfc	0.06212996
240	0x3d5f687a	0.054542996
241	0x3c167090	0.00918211
242	0xbd8303ea	-0.06397231
243	0x3d71c012	0.059021063
244	0x3d52d345	0.051471014
245	0xbc723162	-0.014782282
246	0x3d9fd91b	0.078050815
247	0x3c64b5bf	0.013959347
248	0x3d0a660c	0.033788726
249	0x3dc509da	0.0962102
250	0xbc9df765	-0.019283006
251	0x3d26f029	0.04075638
252	0xbd8240e8	-0.06360036
253	0xbd05c77a	-0.03266094
254	0x3d7b10f1	0.061295453
255	0xbd943387	-0.072363906

weights_k.weight f4 [36, 96]
0	0xbd213603	-0.03935815
1	0x3c3c7a00	0.011503696
2	0x3dbe06b1	0.0927862
3	0x3d078def	0.033094343
4	0xbbbfee51	-0.005857267
5	0xbd89b012	-0.06723036
6	0xbd977a1c	-0.073963374
7	0x3dad4c18	0.08461779
8	0xbd890311	-0.06690038
9	0xbc3e7ff7	-0.011627189
10	0x3d94982b	0.07255586
11	0x3d3c2d1f	0.04594147
12	0x3cc62bf9	0.02419089
13	0x3d6caea5	0.05778374
14	0xbce87944	-0.028378136
15	0xbcce4d11	-0.025183233
16	0xbd8170e7	-0.063203625
17	0x3dc4900e	0.09597789
18	0xbd5ffa48	-0.054682046
19	0x3d81ac06	0.06331639
20	0xbbf8ad04	-0.0075889844
21	0x3ce53680	0.02798009
22	0xbd060b18	-0.032725424
23	0x3dc34867	0.09535294
24	0x3a68af83	0.0008876251
25	0xbd2d28bd	-0.04227518
26	0x3d4ec8e8	0.050484568
27	0x3c3e43f4	0.011612881
28	0x3d9817d2	0.07426418
29	0xbcc96f94	-0.024589337
30	0x3d17e6cd	0.037085343
31	0xbdc51814	-0.09623733
32	0xbdc237d4	-0.094833046
33	0x3c85cdf2	0.016333554
34	0x3d98caaf	0.07460534
35	0xbdbc983e	-0.092087254
36	0x3d7301b5	0.0593278
37	0xbd4fe095	-0.050751287
38	0xbd90c504	-0.07068828
39	0x3dc906ed	0.09815774
40	0x3db596ca	0.08866651
41	0x3dbde982	0.09273054
42	0x3d749dab	0.059720676
43	0x3dbe549c	0.09293482
44	0x3d6139e7	0.05498686
45	0xbd21e160	-0.039521575
46	0x3ca1bed0	0.019744307
47	0xbd998fc8	-0.07498127
48	0xbbf825c9	-0.0075728637
49	0xbd8ded40	-0.069300175
50	0x3d32e16e	0.043672018
51	0x3dbe3ebc	0.092893094
52	0xbda0886e	-0.07838522
53	0xbd96d5cc	-0.07364997
54	0xbda8d25d	-0.082432486
55	0xbd95190c	-0.07280168
56	0x3d890b8a	0.06691654
57	0x3d716f9f	0.05894434
58	0xbd79055a	-0.06079612
59	0xbda83250	-0.08212721
60	0x3d86103b	0.065460645
61	0x3be0ca60	0.0068600625
62	0xbd9ff762	-0.078108564
63	0x3d910225	0.07080487
64	0x3dcd0bf8	0.100120485
65	0xbcbca934	-0.023029901
66	0xbd9bd6e3	-0.07609346
67	0xbca79f3c	-0.020461671
68	0xbd39b71b	-0.04534064
69	0xbdb98e05	-0.09060291
70	0x3da3b6e8	0.07993871
71	0xbcdef20f	-0.027215032
72	0x3d9ef8c0	0.07762289
73	0xbd97c2bd	-0.0741019
74	0xbdac830d	-0.084234335
75	0x3d8eacb3	0.069665335
76	0x3bcbdc6c	0.0062213447
77	0x3c09f6a2	0.008420618
78	0x3d9cb870	0.07652366
79	0x3bb9777b	0.005659995
80	0xbc41d9d9	-0.011831724
81	0xbd981f25	-0.07427815
82	0x3d20b06a	0.03923074
83	0xbda69b4f	-0.081350915
84	0x3d973d1a	0.07384701
85	0x3d0dc06a	0.03460733
86	0x3b6e5e19	0.0036372005
87	0x3c075f7c	0.008262511
88	0xbcc13fb5	-0.023589948
89	0xbdc3e619	-0.09565372
90	0xbd9c00f1	-0.07617367
91	0xbd2fef3b	-0.042952757
92	0x3c8c1079	0.017097699
93	0xbb8335a6	-0.004004198
94	0x3d86ed26	0.06588201
95	0x3d59d138	0.053178042
96	0xbd03ea3c	-0.032205805
97	0xbd0ff642	-0.03514696
98	0x3d4af599	0.049550626
99	0x3d7818dc	0.060570583
100	0xbcf0d815	-0.029399911
101	0x3d5179d0	0.05114156
102	0xbd801dfb	-0.06255718
103	0x3cfcdce6	0.030867051
104	0xbd51ccee	-0.051220827
105	0x3d510dec	0.051038668
106	0xbda58811	-0.08082593
107	0xbdc4ba94	-0.096058995
108	0xbda2bf44	-0.07946637
109	0xba9a16fe	-0.001175612
110	0xbda7061e	-0.08155464
111	0xbd83c961	-0.06434894
112	0xbdc2b1a2	-0.09506537
113	0xbdc28e1c	-0.094997615
114	0x3cfd3d4c	0.030913018
115	0x3da8b1cd	0.08237038
116	0x3bc7bb29	0.0060953093
117	0x3db7aea0	0.08968854
118	0x3da330b0	0.07968271
119	0x3daabe9b	0.08337136
120	0xbd1a2a6f	-0.037638124
121	0xbd9cc333	-0.07654419
122	0xbd4366aa	-0.04770533
123	0xbb45d84e	-0.0030188742
124	0xbd9b159e	-0.075724825
125	0x3d418907	0.04724982
126	0xbd8c760c	-0.06858453
127	0x3d994d2d	0.07485423
128	0xbd4a9ca9	-0.04946581
129	0xbd0ba7d6	-0.034095608
130	0x3d5cea79	0.053934548
131	0x3c86d664	0.016459651
132	0xbdd0b74d	-0.10191212
133	0xba0d9ad1	-0.00054017926
134	0xbc599b10	-0.013281599
135	0x3caba22f	0.020951359
136	0xbd76921a	-0.060197927
137	0x3dc9777b	0.09837242
138	0xbcb6ce1e	-0.022315081
139	0xbd9d315e	-0.07675432
140	0xbd0395d1	-0.032125298
141	0x3ca97eac	0.020690285
142	0x3d390254	0.045168236
143	0x3c606d65	0.013697957
144	0x3d816e69	0.06319887
145	0x3c8e7929	0.017391758
146	0x3daae761	0.08344913
147	0xbd30b013	-0.043136667
148	0xbd4b6187	-0.049653556
149	0x3daaf407	0.08347326
150	0x3d8352f9	0.0641231
151	0xbc3a1be7	-0.0113591915
152	0xbd1ff5aa	-0.039052643
153	0x3bec4575	0.0072104284
154	0x3d8a2808	0.067459166
155	0x3d9a14ad	0.07523475
156	0xbc4bdfa3	-0.012443456
157	0x3dc8c44b	0.09803065
158	0x39d6287b	0.0004084742
159	0xbc1ee3ab	-0.009697835
160	0x3dceb12d	0.10092387
161	0x3ca82b64	0.020528503
162	0xbc49dda7	-0.012320912
163	0xbdc65dab	-0.096858345
164	0x3db7c281	0.089726456
165	0x3d5ba216	0.053621374
166	0xbd3ba40d	-0.045810748
167	0x3d6b387c	0.057426915
168	0xbcdf2aa7	-0.027242018
169	0xbc8d579c	-0.01725369
170	0xbc9b67d9	-0.018970417
171	0xbd5a4921	-0.053292397
172	0xbd8c478d	-0.06849585
173	0x3c6e11b5	0.014530589
174	0xbd1bc77b	-0.038032036
175	0xbdc93e47	-0.098263316
176	0x3dcac1bc	0.09900233
177	0xbd0f3740	-0.0349648
178	0x3da601d2	0.08105816
179	0x3d81d5b5	0.063395895
180	0xbd8d9309	-0.0691281
181	0xbdb4aa6e	-0.088215694
182	0x3c34ad01	0.0110275755
183	0xbbeb2a70	-0.00717669
184	0x3c80fc60	0.015745342
185	0xbda38942	-0.07985164
186	0x3d0c3326	0.034228466
187	0x3dcbc371	0.09949387
188	0xbc5c3553	-0.013440448
189	0x3dade16b	0.08490261
190	0xbcb58192	-0.02215651
191	0xbb9b9b57	-0.0047487426
192	0x3c4e3ab9	0.012587243
193	0xbdcc37ce	-0.099715814
194	0x3dba9a6b	0.09111484
195	0xbda12e1c	-0.07870123
196	0x3d813456	0.063088104
197	0x3db59b30	0.0886749
198	0xbda8bb50	-0.08238852
199	0x3d5b0f18	0.05348119
200	0xbd9eac8e	-0.07747756
201	0x3d7f8651	0.062383953
202	0x3d852fd4	0.06503263
203	0x3b93456d	0.00449436
204	0xbd09fbe0	-0.033687472
205	0x3d9ffb18	0.07811564
206	0xbd8658e3	-0.065599225
207	0x3d750dc2	0.059827574
208	0x3dbe4603	0.092906974
209	0x3dc3e205	0.09564594
210	0xbd09ed72	-0.03367371
211	0xbd6b5959	-0.057458255
212	0x3d4ac484	0.04950382
213	0xbd2c8e4e	-0.0421279
214	0xbd088aec	-0.03333561
215	0xbc88cd05	-0.016699323
216	0x3dbab2e6	0.091161534
217	0x3db11ba6	0.08647852
218	0x3db80cc1	0.089868076
219	0xbdab2156	-0.08355968
220	0xbd5bd689	-0.053671394
221	0xbd421420	-0.047382474
222	0xbd367cc2	-0.044552572
223	0xbcf056df	-0.029338298
224	0xbdb82481	-0.089913376
225	0xbdab0264	-0.08350065
226	0x3d0a9fa2	0.033843644
227	0x3d11d74d	0.035605717
228	0xbd0689de	-0.032846324
229	0x3d318954	0.043343857
230	0xbd4d24d5	-0.050083954
231	0x3d131839	0.035911772
232	0x3ca8c5af	0.020602075
233	0x3da206c1	0.079114445
234	0xbd92a166	-0.071596906
235	0xbdb9700a	-0.09054573
236	0x3da6ef2c	0.08151087
237	0x3cec29b9	0.028828489
238	0xbcb552d4	-0.022134222
239	0x3db61278	0.088902414
240	0xbdb495c4	-0.08817628
241	0x3c49fb26	0.012327945
242	0xbd9aecda	-0.07564707
243	0x3ce0f18b	0.027458927
244	0x3d2de65e	0.042456023
245	0xbcf9a393	-0.030473506
246	0xbc2bd578	-0.010487907
247	0xbd2c678f	-0.04209095
248	0x3dbed119	0.09317226
249	0x3dca3b21	0.09874559
250	0x3ccc686d	0.024952138
251	0x3d66a603	0.056310665
252	0xbd5ad229	-0.05342308
253	0xbd65ceb0	-0.056105316
254	0x3b1be1a9	0.0023785627
255	0xbd367140	-0.044541597

weights_v.weight f4 [77, 96]
0	0x3dac06d4	0.0839974
1	0x3ca363f9	0.019945132
2	0xbd9d7552	-0.07688393
3	0x3c582ac6	0.013193792
4	0xbd16444e	-0.036686234
5	0x3ba89baf	0.005145512
6	0x3d32c14b	0.04364137
7	0xbd213359	-0.03935561
8	0xbd413b55	-0.047175724
9	0x3d08ee10	0.03343016
10	0xbd3f5cc3	-0.046719324
11	0xbd9ecc2c	-0.077537864
12	0x3d55302a	0.052047886
13	0x3db0ad6a	0.08626826
14	0xbd3d5c97	-0.04623088
15	0x3c32a54d	0.010903669
16	0xbd2c9ca1	-0.04214156
17	0x3d87926f	0.06619727
18	0xbdb5b515	-0.08872429
19	0x3d0df1dd	0.034654487
20	0xbd1bae94	-0.038008288
21	0xbd59ed22	-0.053204663
22	0x3cdbe01a	0.026840258
23	0x3dab1230	0.08353078
24	0xbda2da7f	-0.07951831
25	0xbc69f2a4	-0.014279041
26	0x3d48ebad	0.049052883
27	0x3d950723	0.07276752
28	0x3d72f7ae	0.059318237
29	0xbcdcb597	-0.026942058
30	0x3d924b47	0.07143264
31	0x3dbd3c74	0.09240046
32	0xbc5dc280	-0.013535142
33	0x3c3de9ae	0.011591358
34	0x3db35ed7	0.08758324
35	0x3d15d223	0.036577355
36	0xbd9e52df	-0.0773065
37	0x3dbbda94	0.0917255
38	0x3db3d586	0.08780961
39	0x3d008227	0.031374123
40	0xbd1aa8dd	-0.037758697
41	0xbbb07f4a	-0.005386268
42	0x3dc71243	0.0972028
43	0xbc8b59dc	-0.017010622
44	0xb9a4b585	-0.0003141576
45	0x3d50f778	0.051017255
46	0x3dc6bea6	0.09704332
47	0x3ceade9b	0.0286706
48	0xbd4fd42f	-0.050739463
49	0x3dc24cc8	0.09487301
50	0x3d56cae7	0.052439597
51	0xbd8e6722	-0.06953265
52	0xbdb8fb8a	-0.09032352
53	0x3d9f8f9e	0.07791065
54	0xbdad7a97	-0.08470648
55	0x3d71adee	0.059003763
56	0xbd5b61ca	-0.053560056
57	0xbd5bd4b2	-0.05366964
58	0x3d3d996b	0.04628889
59	0xbd75012d	-0.059815574
60	0x3c152aa1	0.009104402
61	0x3ca2e1cb	0.019883057
62	0x3d644bbe	0.055736296
63	0xbdb68410	-0.08911908
64	0xbc1d3c9f	-0.009596973
65	0xbd47026a	-0.048586287
66	0x3cac9c2f	0.021070568
67	0xbcec1f56	-0.028823536
68	0xbd5a4030	-0.05328387
69	0x3dc4ed79	0.09615607
70	0xbd948621	-0.072521456
71	0x3c921357	0.017831488
72	0x3dc51063	0.09622266
73	0x3da1525c	0.07877037
74	0x3da7e41d	0.08197806
75	0x3c818b3c	0.015813462
76	0xbb83d02c	-0.0040226188
77	0x3d9f8fb8	0.07791084
78	0x3d2e0ef3	0.042494725
79	0xbdb7c6a5	-0.08973435
80	0xbd76604f	-0.06015044
81	0xbd9d747c	-0.07688233
82	0x3d365bfc	0.044521317
83	0x3bbe7f4d	0.0058135153
84	0x3cdf4135	0.027252773
85	0x3daec4b6	0.085336134
86	0x3db1b913	0.08677878
87	0x3dc9430c	0.09827241
88	0x3dbd6cb1	0.09249247
89	0x3b2529de	0.0025201957
90	0xbd64ba29	-0.0558416
91	0xbcbb2099	-0.022842692
92	0x3da31a0b	0.07963952
93	0xbdce836f	-0.10083663
94	0x3cab2ecd	0.02089634
95	0x3d2a1706	0.041525863
96	0x3d91cc7c	0.071190804
97	0x3d80fc42	0.06298114
98	0xbda609db	-0.081073485
99	0x3d733393	0.059375357
100	0xbc978c52	-0.018499527
101	0x3da7a7bb	0.08186289
102	0x3bccdff7	0.0062522846
103	0x3c9c3d50	0.019072205
104	0xbbb8721a	-0.0056288363
105	0x3c0fe8f0	0.008783564
106	0xbd75a9fd	-0.059976567
107	0xbcaaf247	-0.02086748
108	0xbd083530	-0.03325385
109	0x3d9d420e	0.076786146
110	0xbd4b8bc1	-0.049693827
111	0xbd9cda86	-0.076588675
112	0xbc0e3598	-0.00867977
113	0x3d14e27c	0.036348805
114	0xbd102cd3	-0.035198998
115	0x3d1dc721	0.038519982
116	0x3cdd04e5	0.026979873
117	0xbce704e4	-0.028200574
118	0xbda6c3cd	-0.08142815
119	0x3d9dfd21	0.07714296
120	0x3c43fdc5	0.011962359
121	0x3d8c9b0b	0.068655096
122	0x3d6a6136	0.057221614
123	0xbd44a76f	-0.04801124
124	0xbd16e89a	-0.03684292
125	0x3d7d0ab3	0.06177778
126	0xbdb9e523	-0.090769075
127	0x3d35f8ef	0.044426855
128	0xbca890a3	-0.02057678
129	0x3c4259a1	0.0118621895
130	0xbd8b7fc5	-0.068114795
131	0x3d0e0763	0.034675013
132	0xbdacaf3a	-0.08431859
133	0x3da9b88f	0.08287155
134	0xbdb6d9e2	-0.089282766
135	0x3d7c2c13	0.06156547
136	0xbb49cbbe	-0.0030791606
137	0xbdc065c4	-0.0939441
138	0xbcfa13f1	-0.030527087
139	0xbd239d76	-0.03994509
140	0x3dafa66c	0.08576664
141	0xbcb18e1c	-0.021674208
142	0xbd28a3a2	-0.041171677
143	0xbd3e6c24	-0.04648985
144	0xbd2765c6	-0.040868543
145	0xbd59bde1	-0.0531596
146	0xbcee8572	-0.029116366
147	0xbdacb83b	-0.08433577
148	0x3d257330	0.040393054
149	0xbc0667e2	-0.0082034785
150	0x3d889643	0.06669285
151	0x3b838c81	0.004014552
152	0xbd0c7008	-0.03428653
153	0xbd775b1d	-0.060389627
154	0x3b9b8ab4	0.0047467593
155	0x3db4b879	0.08824248
156	0x3b321b36	0.0027176864
157	0x3c70152c	0.014653485
158	0x3d41e234	0.047334865
159	0xbc816806	-0.015796673
160	0xbc998bfc	-0.018743508
161	0x3dad8d41	0.08474208
162	0x3d5e592e	0.054284267
163	0xbbbad34f	-0.0057014595
164	0x3b01bf49	0.0019797853
165	0xbd68d19d	-0.056840528
166	0xbcc4c039	-0.02401744
167	0x3d9bbacd	0.07603989
168	0x3ceea366	0.029130649
169	0xbd364812	-0.044502325
170	0xbc8a287d	-0.01686501
171	0xbd11368e	-0.035452418
172	0xbd7b6310	-0.06137377
173	0x3db916fb	0.09037586
174	0x3da0b04c	0.07846126
175	0xbd5ed445	-0.054401655
176	0x3d8cc350	0.068731904
177	0x3c935ccc	0.017988585
178	0xbc16a901	-0.009195567
179	0x3c88320a	0.016625423
180	0x3d87e832	0.066360846
181	0xbca27f5b	-0.019836118
182	0xbd78d55b	-0.060750347
183	0xbd93356f	-0.07187926
184	0x3c990903	0.018681055
185	0xbdab29a4	-0.08357552
186	0x3d3d8de6	0.046277903
187	0xbcea13c2	-0.028573874
188	0x3db718e4	0.089402944
189	0x3dceb915	0.10093895
190	0xbd1aabbf	-0.037761446
191	0x3ccd42fe	0.025056358
192	0xbcac1acc	-0.021008871
193	0xbcc80a91	-0.024419101
194	0xbd8d8503	-0.069101356
195	0x3bd15fd7	0.006389599
196	0x3d216586	0.03940346
197	0x3d4344a4	0.047672883
198	0xbd8efb98	-0.069815814
199	0x3d2ccd8b	0.04218821
200	0xbd8596df	-0.06522917
201	0xbdaf6eed	-0.08566079
202	0xbd95b6e1	-0.07310272
203	0xbd16a88f	-0.036781844
204	0xbcdfc799	-0.027316855
205	0x3cd3c2f6	0.0258498
206	0x3d773e48	0.06036213
207	0xbdc9378a	-0.09825046
208	0xbc4418d0	-0.011968806
209	0xbcf62ecc	-0.030051611
210	0x3d0675ee	0.03282731
211	0xbd4a5f49	-0.049407277
212	0x3cc3831d	0.02386623
213	0xbd3c68b3	-0.045998286
214	0xbd76157f	-0.060079094
215	0xbd892c33	-0.066978835
216	0xbdac3245	-0.08408026
217	0xbdc59763	-0.09648015
218	0xbd8aa167	-0.06769066
219	0x3d7f837f	0.062381264
220	0x3da45755	0.0802447
221	0x3d2a9993	0.041650366
222	0xbd978677	-0.07398694
223	0x3db54f27	0.08852988
224	0xbd8564d4	-0.06513372
225	0xbd8bccf4	-0.06826201
226	0xbd36709d	-0.04454099
227	0x3d64ec43	0.05588938
228	0x3c06e973	0.00823437
229	0x3d6078e1	0.05480278
230	0x3da1ba16	0.07896821
231	0x3c62b834	0.013837863
232	0x3c87908d	0.01654842
233	0xbc3f3871	-0.0116711715
234	0x3ce6182f	0.028087704
235	0x3ce56e4d	0.028006697
236	0x3d82288f	0.06355392
237	0x3d4e5a3f	0.050379034
238	0xbcc1d0bd	-0.023659104
239	0x3dc0bfea	0.09411605
240	0x3d1c86dc	0.03821455
241	0x3cb00588	0.021487013
242	0xbd0942b9	-0.033510897
243	0x3d7d9ad9	0.061915252
244	0x3dce5004	0.100738555
245	0x3c6730a0	0.014110714
246	0x3caef483	0.021356827
247	0x3cf86c69	0.030325131
248	0xbdbad850	-0.091232896
249	0x3d875dd7	0.066096954
250	0xbcf1bef9	-0.029510008
251	0x3d7430db	0.059616905
252	0xbd76a945	-0.06022002
253	0x3ba3df99	0.00500102
254	0xbd90d13d	-0.07071159
255	0xbd161701	-0.036643032

project.weight f4 [96, 77]
0	0xbd132397	-0.035922613
1	0xbdd5ca11	-0.10438932
2	0x3b649529	0.0034878945
3	0xbcfa834a	-0.030580182
4	0xbd00094d	-0.03125887
5	0x3dbd96a6	0.092572495
6	0x3cb79550	0.022410065
7	0x3dba6680	0.091015816
8	0x3d2faf87	0.042892005
9	0xbdb7187e	-0.089402184
10	0x3d5dd456	0.054157577
11	0xbd5ede82	-0.05441142
12	0x3d82bce2	0.06383683
13	0xbde6d5a9	-0.11271221
14	0x3d9f9422	0.07791926
15	0xbb326125	-0.0027218547
16	0x3ce76e82	0.028250936
17	0xbd9f385a	-0.0777442
18	0xbddf2ceb	-0.10897239
19	0x3d7d4f3f	0.061843153
20	0xbd7a62c4	-0.061129346
21	0x3c3ea99a	0.011637116
22	0xbdbaf82f	-0.091293685
23	0xbcc27417	-0.023736997
24	0x3c61c5e6	0.013780093
25	0xbd88958b	-0.06669148
26	0xbca5a11d	-0.020218426
27	0xbde6d83f	-0.112717144
28	0xbde545fc	-0.11194989
29	0xbb8b7fb6	-0.0042571677
30	0xbdad8bbd	-0.084739186
31	0xbd890be2	-0.066917196
32	0xbd9a4b2c	-0.07533869
33	0xbda2ce95	-0.07949559
34	0xbdc98e18	-0.09841555
35	0x3d49b1f5	0.04924198
36	0xbce851f2	-0.028359387
37	0x3c70bd7b	0.014693613
38	0x3c8e60c8	0.017380133
39	0x3dc94ae3	0.09828737
40	0xbd024053	-0.031799626
41	0x3d81c4ce	0.06336366
42	0x3c9d52b9	0.019204484
43	0xbdd8959c	-0.10575411
44	0xbdcab32c	-0.098974556
45	0xbb1a54c4	-0.002354906
46	0x3d959505	0.07303814
47	0xbaf7c517	-0.0018903342
48	0x3c59a7a8	0.013284601
49	0x3d99c538	0.075083196
50	0xbd9f9ad0	-0.077932
51	0x3ceaf54e	0.028681424
52	0xbcb69306	-0.022286903
53	0xbc867ebd	-0.016417855
54	0xbd9988b4	-0.07496777
55	0x3d88ad08	0.06673628
56	0xbc2bad69	-0.010478356
57	0x3d8387e2	0.06422402
58	0xbdc30529	-0.095224686
59	0xbc2dd345	-0.010609453
60	0x3ddfc3e9	0.10926039
61	0xbd19320d	-0.037401248
62	0xbc036823	-0.008020434
63	0x3bd48a06	0.0064861802
64	0x3d9dfc4a	0.07714136
65	0xbce5957d	-0.028025383
66	0xbd54a2d3	-0.051913094
67	0x3d69d0a0	0.057083726
68	0xbb8e53ef	-0.0043435018
69	0xbccc2b65	-0.024923036
70	0xbd9007d5	-0.07032744
71	0xbcbaa7ba	-0.022785056
72	0x3c4a417a	0.012344712
73	0x3dbc7a4c	0.09203014
74	0xbd0095c5	-0.03139283
75	0x3b6de2f0	0.0036298595
76	0xbdac4d55	-0.084131874
77	0x3d5c4555	0.053777058
78	0x3daab5de	0.0833547
79	0xbdac296a	-0.084063366
80	0xbd0eefdc	-0.034896716
81	0x3a6e8241	0.0009098389
82	0xbdd0f4ef	-0.102029674
83	0xbd5a5b63	-0.05330981
84	0xbc02a8be	-0.007974802
85	0xbdcec615	-0.10096375
86	0x3c221a4a	0.009893963
87	0x3d784b9f	0.060618993
88	0xbae01160	-0.0017095022
89	0xbde02fa3	-0.10946586
90	0x3c493fc1	0.0122832665
91	0x3da6da87	0.081471495
92	0xbd37f73c	-0.044913515
93	0xbbb510c8	-0.005525682
94	0x3d2796a0	0.04091513
95	0xbd408558	-0.047002167
96	0xbd9657d9	-0.07340974
97	0x3dc4573b	0.095869504
98	0xbdc1af16	-0.09457223
99	0xbcff23da	-0.031145025
100	0x3d26f89b	0.040764432
101	0x3cb46e38	0.022025213
102	0xbcbf18db	-0.023327282
103	0x3d303951	0.04302341
104	0x3d6e58f2	0.058190294
105	0xbd964cd8	-0.073388755
106	0xbd773955	-0.06035741
107	0x3d26104c	0.040542886
108	0x3d73d424	0.059528485
109	0xbd2380da	-0.039917804
110	0x3dae1c3f	0.08501481
111	0xbd1d7b5d	-0.038447727
112	0xbd40b73e	-0.047049753
113	0xbc7f7646	-0.015592163
114	0x3db4a131	0.08819807
115	0xbd6968cb	-0.056984704
116	0x3da5a91e	0.08088897
117	0xbc006f39	-0.007839018
118	0x3d80803d	0.062744595
119	0xbdacb119	-0.08432216
120	0xbdde4ef5	-0.108549036
121	0x3d48d4ee	0.04903119
122	0xbdb623ab	-0.08893522
123	0x3dc3f031	0.09567297
124	0xbcd2876f	-0.025699345
125	0xbdc42b63	-0.09578588
126	0x3de7bcae	0.11315285
127	0x3de8b756	0.113630936
128	0x3d081fec	0.033233568
129	0x3d83139b	0.06400224
130	0xbda475f9	-0.08030314
131	0x3db9efd7	0.09078949
132	0x3da8a25b	0.08234092
133	0xbd930165	-0.07178
134	0x3d71f920	0.059075475
135	0xbb4e775f	-0.0031504256
136	0xbdb7743f	-0.08957719
137	0x3d9f81e4	0.077884465
138	0xbba7f98b	-0.0051261834
139	0x3d2c017c	0.041993603
140	0x3d64f9e4	0.055902377
141	0x3c8bdfab	0.017074427
142	0x3dbbdf2b	0.09173425
143	0xbd692046	-0.056915544
144	0x3d7f4d3c	0.062329516
145	0x3ddd0833	0.107925795
146	0xbbdc9ae0	-0.0067323297
147	0x3dad6e0b	0.08468255
148	0xbda6667e	-0.081250176
149	0x3d3d0389	0.04614595
150	0x3c6cd465	0.014454936
151	0x3bb11afd	0.0054048286
152	0xbde49815	-0.1116182
153	0x3dc78a8d	0.09743223
154	0xbdcc6038	-0.0997929
155	0xbd32e884	-0.043678775
156	0x3dc66d44	0.096888095
157	0x3cda3e99	0.026641177
158	0xbdd91797	-0.106002025
159	0xbbe5ad47	-0.0070091817
160	0x3ca4a84f	0.020099787
161	0xbddfb77f	-0.10923671
162	0xbdaf0677	-0.08546155
163	0xbdc19130	-0.094515204
164	0x3d4228ef	0.04740232
165	0x3cc53ce2	0.024076883
166	0x3da79d5b	0.0818431
167	0xbdc799c0	-0.09746122
168	0x3c6318c3	0.013860884
169	0x3de78dba	0.11306329
170	0x3dcbc9d4	0.09950605
171	0xbdc53e73	-0.09631052
172	0xbd7b7b5a	-0.061396934
173	0x3dce36ce	0.10069047
174	0x3c9d7077	0.019218666
175	0xbd6f538b	-0.058429282
176	0x3dc60be3	0.09670236
177	0xbcc5f28a	-0.024163503
178	0x3d2d9dfe	0.042387
179	0x3bcfec5e	0.006345316
180	0xbbdd8f8c	-0.006761497
181	0x3b321283	0.0027171678
182	0x3d82ded4	0.06390157
183	0xbbffba40	-0.007804185
184	0x3d88e75c	0.06684753
185	0x3d8054a6	0.062661454
186	0x3d926bbc	0.07149455
187	0xbcffcb1e	-0.031224784
188	0xbcabeef7	-0.02098797
189	0x3b8a59b2	0.0042221183
190	0x3c607658	0.01370009
191	0x3d9d1782	0.076704994
192	0xbd2c798b	-0.0421081
193	0x3dbdfc76	0.09276669
194	0x3d71232e	0.05887144
195	0xbab61428	-0.0013891505
196	0xbdd2d154	-0.102938324
197	0xbd000e62	-0.031263717
198	0xbc7386a6	-0.014863646
199	0x3d0fac26	0.035076283
200	0x3dc23d86	0.09484391
201	0x3cd04b94	0.025426663
202	0xbc88aef1	-0.016684981
203	0x3daebfd1	0.0853268
204	0x3c703107	0.0146601265
205	0x3de267cd	0.11054955
206	0xbc24a938	-0.0100501105
207	0xbda883a8	-0.082282364
208	0x3d265425	0.04060759
209	0xbd032e8f	-0.032026824
210	0xbaa40ff2	-0.0012516959
211	0xbce7a379	-0.028276192
212	0xbd8c3af0	-0.06847179
213	0x3de3f41f	0.11130547
214	0x3c128ccb	0.0089447005
215	0xbd0c6d89	-0.03428415
216	0x3d819ecd	0.06329117
217	0x3ca7d266	0.020486068
218	0xbcc20345	-0.0236832
219	0x3d961804	0.07328799
220	0x3d3b3471	0.04570431
221	0x3dc109bf	0.09425687
222	0x3dd06d71	0.10177124
223	0xbc27acad	-0.01023404
224	0xbdd55b3f	-0.104177944
225	0xbdcf2a66	-0.10115509
226	0xbdc3d2a0	-0.09561658
227	0xbd2fd47e	-0.042927258
228	0xbde75dd4	-0.11297193
229	0xbd82a45e	-0.06379007
230	0x3d3ab2cc	0.04558067
231	0xb9184057	-0.00014519818
232	0xbdc21d1f	-0.09478211
233	0x3c69223d	0.014229354
234	0xbd7b06a4	-0.06128563
235	0x3bf6c93d	0.0075313137
236	0xbd1e7f35	-0.038695533
237	0xbcbcc6c7	-0.023044003
238	0xbd49227b	-0.04910515
239	0x3de033eb	0.109474026
240	0xbd15816b	-0.036500376
241	0xbdc9eced	-0.09859643
242	0xbd094256	-0.03351053
243	0x3daf559a	0.08561249
244	0xbdb94a84	-0.09047416
245	0x3d20c0f9	0.039246533
246	0x3d7bc127	0.0614635
247	0x3de1b4a6	0.11020784
248	0x3de2c5a4	0.11072853
249	0x3dc46312	0.09589209
250	0xbd51734f	-0.051135357
251	0x3ca14c0d	0.019689584
252	0x3d91368c	0.07090482
253	0x3d46b66f	0.048513826
254	0xbd813b8e	-0.06310187
255	0x3a1ab47e	0.0005901529
