exercise_11/exercise_code/tests/tensors/task_9/model_a.pt (torch, 512608 bytes, 18 tensors)

causal_multi_head.weights_q.weight f4 [345, 33]
0	0xbd64fad3	-0.055903267
1	0xbda18d49	-0.07888276
2	0x3d77d00f	0.060501155
3	0xbe21b850	-0.15792966
4	0xbdfb96f0	-0.122846484
5	0xbb3cedbd	-0.0028828226
6	0x3cda9f46	0.026687276
7	0x3d7b81bc	0.06140302
8	0xbce86c4f	-0.028371958
9	0x3d705471	0.05867428
10	0x3c98e07d	0.018661732
11	0x3ccd018b	0.02502515
12	0x3e063062	0.13104394
13	0xbd55c36c	-0.052188322
14	0x3e17d123	0.14825873
15	0x3da739a8	0.08165294
16	0x3d87f8a2	0.0663922
17	0x3df23ad0	0.11827624
18	0x3e180be9	0.14848293
19	0xbe123510	-0.14278054
20	0x3e2d65dd	0.16933389
21	0x3ca43ece	0.020049479
22	0xbe29768c	-0.16549128
23	0xbe045c3a	-0.12925807
24	0xbdb2804f	-0.08715879
25	0x3d29ccfa	0.041455247
26	0xbc88f655	-0.016719023
27	0x3df7fcd4	0.1210877
28	0x3e032088	0.12805378
29	0x3d5038ab	0.050835293
30	0x3e0a3e52	0.13500336
31	0xbe1e4a60	-0.1545806
32	0xbdcb792c	-0.09935221
33	0x3e1a2dd2	0.15056542
34	0xbe057ba5	-0.13035448
35	0x3d9e60b3	0.07733288
36	0xbd878483	-0.066170715
37	0xbe1061c7	-0.14099799
38	0x3dfeaa42	0.12434818
39	0xbdb64257	-0.08899372
40	0xbc35ea90	-0.011103287
41	0x3c5d8f60	0.013522953
42	0x3dcdba99	0.10045356
43	0xbe04c30b	-0.12965028
44	0x3e17c94e	0.14822885
45	0xbd1fcc19	-0.039013002
46	0x3e2847d5	0.16433652
47	0xbe0af4c4	-0.13569933
48	0x3d97d1a2	0.07413031
49	0xbb073008	-0.0020627994
50	0xbcebea49	-0.02879824
51	0x3cb82d11	0.022482427
52	0x3d4472aa	0.047960915
53	0x3bccb3fe	0.0062470427
54	0xbd22b421	-0.039722566
55	0x3e24085d	0.16018815
56	0xbdbb59bc	-0.09147975
57	0x3e1bdf5b	0.15221922
58	0xbcfadde8	-0.030623391
59	0xbe17528d	-0.14777584
60	0x3d015a0e	0.031580023
61	0xbd58f6ad	-0.052969623
62	0xbddcdd78	-0.10784429
63	0xbd20da28	-0.03927055
64	0xbdaf4bf5	-0.085594095
65	0xbe2ae951	-0.16690566
66	0x3de717c2	0.11283828
67	0xbddee7ae	-0.10884033
68	0x3e0ddc96	0.13853678
69	0xbc8e0984	-0.017338522
70	0x3e16e281	0.14734842
71	0x3be2431f	0.006904974
72	0x3e270e22	0.16313985
73	0x3c5c369d	0.013440755
74	0x3d18f566	0.037343405
75	0xbd460349	-0.048342977
76	0x3e305e35	0.17223437
77	0x3e259dd8	0.16173494
78	0x3dc1fd2e	0.09472118
79	0xbb0653ff	-0.0020496843
80	0x3c9d0d1b	0.019171288
81	0xbd6eff0e	-0.058348708
82	0x3ca9b162	0.020714466
83	0x3cb49d98	0.022047803
84	0x3e127df8	0.14305866
85	0xbc391f40	-0.0112989545
86	0xbdc26d49	-0.09493501
87	0xbe1576ab	-0.1459605
88	0xbd83af8e	-0.06429969
89	0xbde01d04	-0.10943034
90	0xbc9923f1	-0.018693896
91	0x3df3d6e9	0.11906225
92	0xbd8a4111	-0.06750692
93	0xbc82916f	-0.015938489
94	0x3e30701e	0.1723027
95	0x3d25d774	0.040488675
96	0x3bece1b2	0.0072290534
97	0xbd73c193	-0.05951078
98	0xbe09ddea	-0.1346356
99	0xbe120713	-0.14260511
100	0x3d869425	0.06571225
101	0x3da742a2	0.08167006
102	0xbe0efb60	-0.1396308
103	0x3ade1511	0.0016943534
104	0xbe1f0316	-0.15528521
105	0x3ddf3427	0.10898619
106	0xbe2db40c	-0.16963214
107	0xbe3104ab	-0.17286937
108	0xbd547949	-0.05187348
109	0xbce2b947	-0.027676238
110	0x3d6fb4fc	0.05852221
111	0x3da33786	0.07969575
112	0x3dd3fb49	0.10350663
113	0x3e165485	0.14680679
114	0x3e21bd5b	0.1579489
115	0xbd901aca	-0.070363596
116	0xbdfe1f53	-0.12408318
117	0x3d5b20eb	0.05349819
118	0xbc18648b	-0.009301315
119	0xbce95fee	-0.028488126
120	0xbe19a586	-0.15004548
121	0xbba79971	-0.005114727
122	0x3dc6ad02	0.09700967
123	0x3d73ff11	0.059569422
124	0x3e038d21	0.12846805
125	0xbe1d49a0	-0.15360117
126	0xbe21fe12	-0.15819576
127	0xbcc13979	-0.023586975
128	0xbd873cef	-0.06603419
129	0xbcce1d07	-0.025160326
130	0x3d415b65	0.0472063
131	0xbd72d9ec	-0.059289858
132	0xbe1c71a2	-0.15277722
133	0x3e22c011	0.1589358
134	0x3e19563f	0.14974307
135	0xbd2a7e46	-0.04162433
136	0xbd072a97	-0.0329996
137	0xbd91577d	-0.07096765
138	0xbe129f9d	-0.143187
139	0xbd316fa7	-0.04331937
140	0x3e03909e	0.12848136
141	0x3d2ed9f0	0.04268831
142	0x3b51082b	0.0031895738
143	0xbc1f73d2	-0.009732204
144	0x3e0e1767	0.13876115
145	0x3e1d66a2	0.15371183
146	0xbde630ec	-0.112398
147	0x3d268181	0.04065085
148	0x3d9028a3	0.07039001
149	0x3c9251ba	0.017861236
150	0x3e1a9100	0.15094376
151	0xbcda8735	-0.0266758
152	0xbdfa9e7f	-0.12237262
153	0x3b3abef3	0.0028495162
154	0x3d7b0919	0.061287973
155	0x3d230856	0.03980287
156	0x3d6032b0	0.05473584
157	0xbdf7d1ee	-0.12100588
158	0xbdfcff71	-0.12353409
159	0x3e09783f	0.13424776
160	0xbc81452a	-0.01578005
161	0xbe097038	-0.13421714
162	0x3d8799aa	0.06621106
163	0x3d87240b	0.065986715
164	0xbd663757	-0.05620512
165	0x3c35efc9	0.0111045325
166	0xbd96f76d	-0.073714115
167	0x3d98905c	0.07449409
168	0xbe0cd38c	-0.13752574
169	0xbe03ff44	-0.12890345
170	0x3db108f5	0.086442865
171	0xbc3ec30d	-0.011643183
172	0x3df67026	0.12033109
173	0x3ddb30f7	0.10702699
174	0xbd423557	-0.04741415
175	0xbd9e6c5a	-0.0773551
176	0xbda999d4	-0.082812935
177	0x3b8c5cc3	0.004283519
178	0x3cc1f279	0.02367519
179	0x3e0a7828	0.13522398
180	0x3e1a1805	0.15048225
181	0xbe27a18b	-0.16370218
182	0xbe29b4bb	-0.1657285
183	0xbbd1e2a3	-0.006405191
184	0xbe028d07	-0.1274911
185	0x3df5e950	0.120073915
186	0x3e2ec627	0.17067777
187	0xbd76e6aa	-0.060278572
188	0xbd5786b3	-0.052618694
189	0x3e2932a1	0.1652322
190	0x3e153ed9	0.14574756
191	0x3e27031c	0.1630978
192	0xbc892913	-0.016743219
193	0x3daa3498	0.08310813
194	0x3e1d8800	0.15383911
195	0x3e1ef1ce	0.15521929
196	0xbddfa619	-0.109203525
197	0x3e2df2ae	0.16987106
198	0x3e24df51	0.16100813
199	0xbe1774f6	-0.14790711
200	0x3d25fb6c	0.040522978
201	0xbe2b5a3e	-0.16733643
202	0x3da4a8a8	0.08039981
203	0xbddadb47	-0.10686355
204	0xbdd60cb3	-0.10451641
205	0x3d42061a	0.0473691
206	0xbdfc3a8d	-0.12315855
207	0xbe15f74a	-0.14645115
208	0xbe2b117a	-0.16705886
209	0x3dd929b7	0.106036596
210	0xbc5a4974	-0.013323177
211	0xbd1f4294	-0.038881853
212	0xbda4d3b5	-0.080481924
213	0xbd021be4	-0.03176488
214	0xbda89db6	-0.08233206
215	0x3c41add8	0.011821233
216	0x3cb6280e	0.022235896
217	0xbd9b6234	-0.0758709
218	0x3c0058a3	0.007833633
219	0x3dc8e760	0.09809756
220	0xbe2721b4	-0.1632145
221	0x3db8dae7	0.09026127
222	0xbe08c93d	-0.13358016
223	0x3dae6438	0.08515209
224	0xbdb8d33c	-0.09024665
225	0x3dc76a39	0.09737057
226	0xbe1c8d02	-0.15288165
227	0xbcff65b3	-0.031176424
228	0x3d87b68d	0.06626616
229	0xbda1e1da	-0.07904406
230	0x3e10cd3c	0.1414079
231	0x3dd65d14	0.10466972
232	0x3d6f143f	0.058368918
233	0x3de05cac	0.10955176
234	0xbde000f2	-0.1093768
235	0xbe0d5318	-0.13801229
236	0xbe1d10f3	-0.15338497
237	0x3d5969cf	0.053079423
238	0x3d86497a	0.06556983
239	0x3d95b64c	0.07310161
240	0xbe04a433	-0.12953262
241	0x3e14cdcc	0.1453163
242	0xbe1b08dd	-0.151401
243	0x3da4355f	0.08017992
244	0x3d08b9d7	0.033380356
245	0x3dd61b87	0.10454469
246	0x3d11dfe1	0.0356139
247	0x3db3b60a	0.087749556
248	0x3e16c54f	0.14723705
249	0x3e2bfe17	0.16796146
250	0x3ac07428	0.0014683055
251	0x3d52e7e8	0.051490694
252	0xbe22dd76	-0.15904793
253	0x3e2e2a61	0.17008354
254	0x3dedec94	0.11617389
255	0x3be7c4fa	0.007073042

causal_multi_head.weights_k.weight f4 [345, 33]
0	0x3d0824df	0.033238288
1	0xbe23c74a	-0.15993991
2	0xbd854d80	-0.065089226
3	0xbd88eaae	-0.066853866
4	0x3d57bc99	0.052670095
5	0xbd75c653	-0.06000359
6	0xbc872cfc	-0.016500942
7	0xbd416c64	-0.04722251
8	0x3de08317	0.109625034
9	0xbd7e811d	-0.06213485
10	0x3dbae024	0.09124783
11	0x3dead5c9	0.114665575
12	0xbe1af0a9	-0.15130867
13	0x3e08ee33	0.13372116
14	0xbe2f7ab0	-0.17136645
15	0xbe2f17f7	-0.17098986
16	0x3d428317	0.0474883
17	0xbe055055	-0.13018925
18	0x3e04e85e	0.12979266
19	0xbd115ba0	-0.03548777
20	0xbded0754	-0.11573663
21	0x3ca6331b	0.02028804
22	0xbdd46ecf	-0.103726976
23	0x3dca14af	0.09867226
24	0x3cf8cc30	0.030370802
25	0xbe2e6eec	-0.17034501
26	0xbd9b2d40	-0.0757699
27	0xbdaf6bea	-0.08565505
28	0x3e00672b	0.12539355
29	0x3d15b902	0.03655339
30	0x3d4ef541	0.05052686
31	0xbe13e525	-0.1444288
32	0x3e05927d	0.13044162
33	0xbc0720b6	-0.008247545
34	0x3e02c793	0.12771444
35	0x3de525a0	0.11188817
36	0x3dddbf05	0.1082745
37	0x3e1717ed	0.1475522
38	0xb7007825	-7.657368e-06
39	0xba9c40f5	-0.0011921214
40	0xbe1aeeb5	-0.15130122
41	0x3cb52729	0.0221134
42	0x3e12bed7	0.14330612
43	0xbe2c3df3	-0.16820507
44	0x3da2843c	0.07935378
45	0x3d45499c	0.048165902
46	0xbde97170	-0.113985896
47	0xbd975913	-0.073900364
48	0x3dd52987	0.10408311
49	0x3cad40c5	0.021149049
50	0x3e2c1264	0.1680389
51	0x3e2e505f	0.17022847
52	0x3e10fd95	0.14159234
53	0x3d1d56f0	0.03841299
54	0x3d9ba79b	0.076003276
55	0x3e16139a	0.14655915
56	0x3dd16a24	0.10225323
57	0xbd7f1657	-0.062277164
58	0x3def2f24	0.11678913
59	0xbde4c89d	-0.111710764
60	0x3db74588	0.08948809
61	0xbd369e1f	-0.04458439
62	0xbd4a2565	-0.04935207
63	0xbd0c222a	-0.03421227
64	0xbd59fdb0	-0.05322045
65	0x3d546f89	0.05186418
66	0x3dea0098	0.114258945
67	0xbdb0ca9a	-0.08632393
68	0x3e267394	0.16255027
69	0x3c98d3d3	0.018655693
70	0x3da2aac0	0.07942724
71	0x3e088095	0.133303
72	0x3e21afdf	0.15789746
73	0x3e1c3352	0.15253952
74	0x3d583140	0.052781343
75	0xbdecab89	-0.11556155
76	0xbde2207b	-0.110413514
77	0x3ddb1c99	0.10698814
78	0x3d4ad98b	0.04952387
79	0xbbc58483	-0.0060277595
80	0x3d6972ee	0.05699437
81	0xbe10e205	-0.1414872
82	0x3e28060d	0.16408558
83	0xbc5891bc	-0.0132183395
84	0x3c13d3e0	0.009022683
85	0xbcf71277	-0.030160172
86	0xbd8bbd17	-0.068231754
87	0xbd6529ce	-0.05594807
88	0x3e1a31e8	0.150581
89	0x3e04c6f3	0.12966518
90	0xbe091f7c	-0.13390917
91	0x3d386c0a	0.04502491
92	0xbe13233d	-0.14368911
93	0x3d778429	0.060428772
94	0x3ddcb3f1	0.107765086
95	0x3de64771	0.11244095
96	0xbdf784bc	-0.12085864
97	0xbdf33a75	-0.11876384
98	0x3d52938b	0.05141024
99	0xbdc2e951	-0.09517158
100	0x3d27aba2	0.040935166
101	0xbd1da198	-0.038484186
102	0xbd04b08f	-0.032394942
103	0x3d13df25	0.03610148
104	0xbc0ea4b5	-0.008706261
105	0xbe2a54de	-0.16633937
106	0xbd6fd5e9	-0.05855361
107	0x3d87e3f1	0.06635273
108	0xbdffe478	-0.12494749
109	0xbe29b78b	-0.16573922
110	0xbe29a3d5	-0.16566403
111	0x3d5051a6	0.050859116
112	0xbdf988a3	-0.121842645
113	0xbd991890	-0.07475388
114	0x3e2e0e95	0.1699775
115	0xbe152203	-0.14563756
116	0x3e256b9e	0.16154334
117	0x3d85f63f	0.06541108
118	0x3bc84b72	0.0061125094
119	0x3d4693a9	0.048480663
120	0xbd1e97df	-0.038719054
121	0xbc27821e	-0.010223893
122	0x3e31a6d1	0.17348792
123	0xbcd9cc08	-0.026586547
124	0xbb04e9ea	-0.0020281025
125	0x3df13f91	0.117797025
126	0x3daff27a	0.085911706
127	0x3dd207f2	0.10255422
128	0xbd6f7d05	-0.058468837
129	0x3ce53b7e	0.02798247
130	0x3e10e9d1	0.14151694
131	0x3d98758f	0.074442975
132	0xbc5c0de1	-0.013431043
133	0x3cfe76a5	0.031062433
134	0x3deebd1a	0.11657162
135	0x3de9e019	0.11419696
136	0xbb0e07f3	-0.0021672219
137	0xbda0d90f	-0.07853901
138	0x3d20c16b	0.039246958
139	0xbe0fc71c	-0.14040798
140	0x3e23f610	0.16011834
141	0xbdf5549c	-0.119790286
142	0xbd89f436	-0.06736033
143	0x3dea870c	0.114515394
144	0x3d9197bc	0.07109019
145	0x3e264c92	0.16240147
146	0xbe1f001f	-0.1552739
147	0x3da718f9	0.0815906
148	0x3de98158	0.114016235
149	0x3d67fed6	0.056639515
150	0xbda0bdaa	-0.078486755
151	0x3dee2482	0.11628057
152	0xbdd62777	-0.10456746
153	0xbe160900	-0.1465187
154	0xbe1f5741	-0.15560628
155	0xbd6c933a	-0.057757594
156	0x3e17b9c2	0.14816955
157	0x3d60ad43	0.054852735
158	0xbdecec50	-0.115685105
159	0xbe04f91c	-0.12985653
160	0x3e21a249	0.15784563
161	0x3dd8e2d2	0.105901375
162	0xbd93807e	-0.07202242
163	0x3cf21c22	0.02955443
164	0xbd3966d7	-0.04526409
165	0xbe03daa3	-0.12876372
166	0x3d16a963	0.036782634
167	0x3e1d98b5	0.15390284
168	0x3e1bf6ff	0.1523094
169	0xbd97a53c	-0.07404563
170	0x3e144f50	0.1448338
171	0x3e2145c4	0.1574927
172	0x3e00a9ed	0.12564822
173	0x3cbb0246	0.022828232
174	0xbe1dd562	-0.1541343
175	0x3d0a53a9	0.03377119
176	0x3dad9f90	0.084777
177	0xbc9da709	-0.019244688
178	0xbca48739	-0.02008401
179	0xbcce4210	-0.025177985
180	0x3df04b85	0.11733154
181	0x3d8458c4	0.06462243
182	0xbc268de3	-0.010165664
183	0xbd05569b	-0.032553297
184	0x3db44324	0.088018686
185	0x3e15607a	0.14587584
186	0x3ce016ba	0.027354587
187	0xbd26ab38	-0.04069063
188	0xbe014bb7	-0.12626539
189	0x3d74e5f0	0.059789598
190	0x3d89ea98	0.06734198
191	0xbd8ce424	-0.06879452
192	0x3d116b6c	0.035502836
193	0x3ddd8cf9	0.10817904
194	0xbde837fa	-0.11338802
195	0xbe2aa1d2	-0.16663292
196	0xbd6fe678	-0.0585694
197	0xbd80d391	-0.06290353
198	0x3cd6db7e	0.026227709
199	0xbdd0c04c	-0.10192928
200	0xbdb8f6bf	-0.09031438
201	0x3e04a3f5	0.1295317
202	0x3e039f79	0.12853803
203	0x3d24c36e	0.04022544
204	0xbddf1bfd	-0.1089401
205	0xbd889725	-0.066694535
206	0xbe0e9649	-0.13924517
207	0x3c27c5eb	0.010240058
208	0xbd9156af	-0.07096612
209	0x3e2cf3da	0.16889897
210	0xbc63ec0c	-0.013911258
211	0x3db5950e	0.088663206
212	0xbd3204ba	-0.04346154
213	0xbddb6270	-0.10712135
214	0xbcb17e24	-0.021666594
215	0xbc28606a	-0.010276893
216	0xbe09d0ba	-0.13458529
217	0xbdc4e760	-0.09614444
218	0xbdcb9b9e	-0.09941791
219	0x3e042d28	0.1290785
220	0x3d0841a9	0.033265743
221	0xbe098e7c	-0.1343326
222	0x3e18feff	0.14941023
223	0xbc3d45bc	-0.0115522705
224	0x3bd1765c	0.0063922834
225	0x3dd68282	0.10474111
226	0xbcbade10	-0.022810966
227	0x3e0302e8	0.12794077
228	0x3c266780	0.010156512
229	0xbd367759	-0.044547413
230	0x3e2df9c2	0.16989806
231	0x3cd0c395	0.025483886
232	0xbdf52a01	-0.11970902
233	0xbd9cdff7	-0.076599054
234	0xbdd79c38	-0.10527843
235	0x3da0b9de	0.07847951
236	0x3dc84e9a	0.09780617
237	0x3d1b38d1	0.03789598
238	0xbdf0d095	-0.11758534
239	0x3e252f38	0.16131294
240	0x3de116c3	0.109906696
241	0x3e1b4bd7	0.1516565
242	0xbddfc5a9	-0.109263726
243	0xbe0525b2	-0.13002661
244	0xbdb2a39e	-0.08722614
245	0xbd0284f7	-0.031865086
246	0x3e0fe443	0.14051919
247	0x3d9c7e4c	0.07641277
248	0x3dee17db	0.11625644
249	0x3c567043	0.013088289
250	0xbc99afa4	-0.01876051
251	0x3e16ad84	0.14714628
252	0x3ddb01b4	0.10693684
253	0xbd259891	-0.0404287
254	0xbda154c9	-0.078774996
255	0x3db53047	0.08847099

causal_multi_head.weights_v.weight f4 [215, 33]
0	0xbdd48e2d	-0.103786804
1	0x3d05c38e	0.0326572
2	0xbd3a60fd	-0.04550265
3	0x3e27ea66	0.1639801
4	0xbe224b5b	-0.15849058
5	0x3dc2930d	0.09500704
6	0xbc041094	-0.008060593
7	0xbe1d9fed	-0.15393038
8	0x3e30098d	0.17191143
9	0xbdb34187	-0.08752733
10	0x3de7ec47	0.11324363
11	0x3d85e0ef	0.06537043
12	0x3da67386	0.08127503
13	0x3e114ba1	0.14189006
14	0xbd895e44	-0.06707433
15	0x3c242e02	0.010020735
16	0xbd275c79	-0.040859673
17	0x3e0b3fee	0.13598606
18	0xbce2d084	-0.027687319
19	0x3e0c51e1	0.1370311
20	0xbd5fffcb	-0.054687303
21	0x3de67089	0.11251933
22	0x3c93c2af	0.018037168
23	0xbe19928e	-0.14997312
24	0xbd635931	-0.05550498
25	0xbcce1875	-0.025158146
26	0x3e22da5c	0.1590361
27	0x3c9f408e	0.019439962
28	0xbc80ee36	-0.015738588
29	0x3d390b25	0.045176644
30	0x3e09b0a7	0.13446294
31	0x3df5b679	0.119976945
32	0xbd5eafe9	-0.05436698
33	0xbb781dce	-0.0037859562
34	0xbe08b4fe	-0.13350293
35	0xbdf52de9	-0.11971647
36	0xbd6741ae	-0.05645912
37	0xbe00cfb9	-0.1257924
38	0xbe13fe87	-0.14452563
39	0x3cca6384	0.024705656
40	0x3c88c76b	0.016696652
41	0xbd1637e3	-0.03667439
42	0x3d260d1d	0.04053985
43	0x3e0eb5b9	0.13936509
44	0x3dc5f98f	0.0966674
45	0xbd939fd0	-0.07208216
46	0xbdbce105	-0.092226066
47	0x3e15ed8c	0.14641398
48	0xbdb66a6f	-0.08907019
49	0x3dda8ceb	0.10671409
50	0xbcc1a9aa	-0.023640472
51	0x3d32a8d1	0.043618027
52	0x3d668c4a	0.056286134
53	0xbd149e00	-0.036283493
54	0x3bd8da10	0.006617792
55	0x3e01a180	0.12659264
56	0x3c594fbd	0.01326364
57	0x3dbf10b9	0.093293615
58	0xbd102122	-0.035187848
59	0x3d568edb	0.05238233
60	0xbde88da5	-0.113551416
61	0x3da83ea5	0.082150735
62	0x3e2cb237	0.16864859
63	0x3dd8f8a2	0.10594298
64	0x3e10d9d2	0.14145592
65	0xbe121ff2	-0.14269999
66	0xbd800e7d	-0.062527634
67	0x3e2f91c5	0.1714545
68	0x3e1dc7f1	0.15408303
69	0xbdc5da15	-0.096607365
70	0x3d187b38	0.037226886
71	0x3dfad5db	0.12247821
72	0xbcd231cc	-0.02565851
73	0x3d40a8af	0.04703587
74	0x3c6587ea	0.014009455
75	0x3d905f95	0.07049481
76	0x3e1de8dd	0.15420862
77	0x3ceec27f	0.029145477
78	0xbc8d72ad	-0.017266596
79	0x3e0a393c	0.13498396
80	0x3c3f9957	0.011694274
81	0x3d7b8b39	0.06141207
82	0xbe23be5c	-0.15990585
83	0x3c6ee57c	0.0145810805
84	0x3d401622	0.046896107
85	0x3e2492c5	0.16071613
86	0xbcdb1c0b	-0.02674677
87	0xbe037862	-0.12838891
88	0xbddf24fd	-0.10895727
89	0x3dae5a27	0.08513289
90	0xbe278ce7	-0.16362344
91	0xbd68ae4f	-0.05680686
92	0x3e28f5dc	0.16500038
93	0xbd831d14	-0.064020306
94	0x3e253861	0.16134788
95	0x3e04a208	0.12952435
96	0xbcca056e	-0.024660792
97	0xbe237e82	-0.15966228
98	0x3de5e3b2	0.1122507
99	0xbc155226	-0.009113824
100	0xbdd80d77	-0.10549443
101	0xbda440ea	-0.08020194
102	0xbde5eb7a	-0.11226554
103	0xbd06a53a	-0.032872416
104	0xbdce265a	-0.10065909
105	0xbe146674	-0.14492208
106	0xbe04eeac	-0.12981671
107	0xbcb28d66	-0.02179594
108	0x3db935ba	0.09043451
109	0x3ccbe847	0.024891032
110	0xbdb57961	-0.08861042
111	0xbddebce1	-0.108758695
112	0xbe30f47b	-0.17280762
113	0x3d32fe4f	0.04369956
114	0x3cef974e	0.029246952
115	0x3db34e0c	0.08755121
116	0xbc9769c9	-0.01848306
117	0xbd204d5a	-0.03913627
118	0xbe158e27	-0.14605008
119	0xbe07b62d	-0.13253088
120	0x3df81c72	0.121148005
121	0xbe22112e	-0.15826866
122	0xbc8e5210	-0.017373115
123	0x3d59597d	0.05306386
124	0xbdc71cf7	-0.097223215
125	0xbc0cb27f	-0.008587479
126	0x3df6ea0c	0.1205636
127	0x3d54e141	0.05197263
128	0x3d709a29	0.05874077
129	0xbe1011b3	-0.14069252
130	0x3c2176d4	0.009854991
131	0x3dee81ce	0.11645852
132	0xbda6df1d	-0.08148024
133	0x3da19d44	0.07891324
134	0x3d9de4c7	0.077096514
135	0x3d0e0a9b	0.034678083
136	0xbe1dddbc	-0.15416616
137	0xbc1ca6b5	-0.00956123
138	0x3d8162e1	0.06317688
139	0xbc9d10f0	-0.019173115
140	0x3b730919	0.003708428
141	0x3cc6648d	0.024217868
142	0xbc5eb870	-0.013593778
143	0x3de64e14	0.11245361
144	0xbd66090f	-0.056160983
145	0xbe2240d5	-0.15845044
146	0x3e060e82	0.13091472
147	0xbd80ae3d	-0.06283233
148	0xbdb17cb8	-0.08666366
149	0x3d827f0c	0.063718885
150	0xbd9a3869	-0.07530291
151	0xbd83dd21	-0.06438661
152	0xbe045811	-0.1292422
153	0xbe0efe1f	-0.13964127
154	0x3cbaf80c	0.022823356
155	0x3d1c9d80	0.03823614
156	0xbd15adff	-0.03654289
157	0x3e0e62e8	0.13904917
158	0x3df518cd	0.11967621
159	0xbd10ab2d	-0.035319496
160	0x3c5c44e4	0.013444159
161	0xbe2b1fc1	-0.16711332
162	0xbd72447a	-0.059147336
163	0x3c50451d	0.01271179
164	0xba2352ab	-0.0006230275
165	0x3c021c8b	0.0079413755
166	0x3d5c9fb1	0.05386323
167	0xbe0e697d	-0.13907428
168	0x3d98865f	0.07447504
169	0x3d48c2f3	0.049014043
170	0x3d03473d	0.03205036
171	0xbd9a328c	-0.07529172
172	0xbd7b124d	-0.06129675
173	0xbe0dbe8f	-0.13842224
174	0x3dc1b42d	0.09458194
175	0x3d9460a3	0.072449945
176	0x3d22ea0c	0.039773986
177	0x3e31547c	0.17317384
178	0xbe3032f0	-0.17206931
179	0xbe10bec3	-0.1413527
180	0xbc4ffb38	-0.012694173
181	0x3df7353d	0.12070701
182	0x3c6d6ba6	0.014490997
183	0x3d7d08b6	0.061775886
184	0x3dfe9ed9	0.124326415
185	0x3d9d78e5	0.076890744
186	0x3d10ff8f	0.03539997
187	0x3e26594b	0.16245
188	0x3d781e38	0.060575694
189	0x3e230069	0.15918125
190	0xbdd4724d	-0.10373364
191	0xbc7e6195	-0.015526195
192	0x3cd69277	0.026192887
193	0xbe08bb1f	-0.13352631
194	0xbd8cf341	-0.068823345
195	0xbca89e58	-0.020583317
196	0xbe013cec	-0.12620896
197	0xbdcef3bb	-0.10105082
198	0x3b762bf1	0.0037562812
199	0xbe0bd496	-0.13655314
200	0x3e1134af	0.14180253
201	0x3d9fbce0	0.07799697
202	0x3d6a99ed	0.0572757
203	0xbd03f366	-0.032214545
204	0x3ded58be	0.11589192
205	0x3db3c05d	0.08776925
206	0xbcd828c4	-0.026386626
207	0x3d1c702d	0.038192917
208	0xbe27f542	-0.16402152
209	0xbdcf9211	-0.10135282
210	0x3dc42a4b	0.09578379
211	0x3e199802	0.14999393
212	0x3d95edf8	0.073207796
213	0xbced8976	-0.02899621
214	0xbe05ddb2	-0.13072851
215	0xbd4cc91f	-0.04999649
216	0xbc887335	-0.016656497
217	0xbdcdf65c	-0.10056755
218	0xbb68ff04	-0.0035552392
219	0xbd58c358	-0.05292067
220	0xbe2f2760	-0.17104864
221	0xbb88aed4	-0.0041712318
222	0x3d624b2d	0.055247474
223	0x3d99d2b2	0.0751089
224	0xbdfea3f6	-0.12433617
225	0x3dbd0be8	0.092307866
226	0x3e204957	0.15652977
227	0xbd98c35d	-0.074591376
228	0x3cb44ac7	0.022008313
229	0xbd3a13a2	-0.04542888
230	0xbe27f680	-0.16402626
231	0xbc30466a	-0.0107589755
232	0xbdb181b3	-0.08667316
233	0x3e1feb4c	0.15617102
234	0xbc94af41	-0.018149974
235	0xbdc93aef	-0.09825694
236	0xbd950b9d	-0.07277606
237	0xbd3cb5aa	-0.046071686
238	0xbe1c37fd	-0.15255733
239	0x3d0880e5	0.03332605
240	0x3da57852	0.0807959
241	0x3da752de	0.081701025
242	0x3d4ef23b	0.050523978
243	0xbd2be692	-0.041967936
244	0xbce6ada0	-0.028158963
245	0xbe2b2ca4	-0.16716248
246	0xbcacb2fb	-0.021081438
247	0xbda7a43f	-0.08185624
248	0x3dee39f7	0.1163215
249	0xbd01ef9c	-0.03172265
250	0x3e0b2f57	0.13592277
251	0x3d84608c	0.06463727
252	0xbe08bfc0	-0.13354397
253	0xbde93556	-0.11387126
254	0xbddf183f	-0.108932965
255	0x3e025c7c	0.12730592

causal_multi_head.project.weight f4 [33, 215]
0	0xbc4fb27f	-0.012676834
1	0x3d3c8cfa	0.046032883
2	0x3d872261	0.06598354
3	0xbcff9318	-0.03119807
4	0x3c2daf9c	0.010600951
5	0x3d2cfb53	0.04223187
6	0x3a9acddf	0.0011810622
7	0x3d8aaa49	0.067707606
8	0x3d5c4aad	0.053782154
9	0x3d8050b8	0.06265396
10	0x3c683984	0.014173869
11	0xbd2aa4bd	-0.041661013
12	0x3ba99fac	0.005176505
13	0xbc1f5d1b	-0.009726788
14	0x3d73d257	0.059526768
15	0xbd5c3eb5	-0.05377074
16	0xbd8676dd	-0.0656564
17	0xbd323231	-0.043504898
18	0x3d6cd234	0.057817653
19	0xbca9fb80	-0.020749807
20	0xbba17973	-0.004927808
21	0x3d122d9a	0.03568802
22	0x3d54edb4	0.051984504
23	0xbd84f806	-0.06492619
24	0xbd442fc9	-0.047897134
25	0xbd4f22c6	-0.050570272
26	0xbca2a0c5	-0.019852052
27	0xbca4d362	-0.020120326
28	0xbd018db3	-0.031629276
29	0xbd849f77	-0.06475728
30	0xbd7bd42a	-0.061481632
31	0x3d7a2eaf	0.061079677
32	0xbd1ecf10	-0.03877169
33	0x3d87239a	0.06598587
34	0xbb023456	-0.001986762
35	0xbcad5e37	-0.02116309
36	0xbd89c5a5	-0.06727151
37	0xbb6f3168	-0.0036497954
38	0xbbf6f0c8	-0.0075360276
39	0x3d5f9485	0.054585
40	0x3d4b6ee1	0.04966629
41	0x3d0b938d	0.034076262
42	0x3b343f77	0.0027503648
43	0xbd818732	-0.063246146
44	0x3d87bfe5	0.06628398
45	0x3d176a44	0.036966577
46	0x3d6e60a6	0.05819764
47	0xbd38b20e	-0.04509168
48	0x3d05acfe	0.03263568
49	0xbc883e3b	-0.016631236
50	0x3d01615f	0.031587
51	0x3d0e7571	0.03477997
52	0x3ce13974	0.027493216
53	0xbd4290a1	-0.04750121
54	0x3cb3147a	0.02186035
55	0xbc997d30	-0.018736452
56	0xbc21a425	-0.009865795
57	0xbc81f083	-0.015861755
58	0xbd0f7519	-0.035023782
59	0xbd17f8cb	-0.0371025
60	0xbd0ed352	-0.0348695
61	0xbc66fc49	-0.014098235
62	0x3d6d72f5	0.05797096
63	0xb9815b76	-0.0002467294
64	0x3c2b7a1a	0.010466123
65	0xbd832853	-0.064041756
66	0xbbc30cf7	-0.0059524733
67	0xbd62f532	-0.055409618
68	0xbcb8f379	-0.022577034
69	0x3d2cc64f	0.04218131
70	0xbd53286c	-0.05155222
71	0xbd0e46e1	-0.034735564
72	0x3d3dd2ac	0.04634349
73	0x3cb7f5b8	0.022456035
74	0x3d8680dd	0.065675475
75	0xbd45213f	-0.04812741
76	0xbbad8fba	-0.0052966746
77	0x3d13fc78	0.036129445
78	0xbd81d324	-0.063391
79	0x3bc63be1	0.0060496186
80	0xbceb4749	-0.028720515
81	0xbc9d9261	-0.019234838
82	0x3af29439	0.0018507309
83	0xbd5862ba	-0.052828528
84	0xbd35a5a8	-0.044347435
85	0x3d772421	0.06033719
86	0x3d5e58c2	0.054283865
87	0x3c732f57	0.01484283
88	0xbb2fe722	-0.0026840647
89	0x3d266ffd	0.040634144
90	0x3d42a1d5	0.047517616
91	0xbc610f1f	-0.013736515
92	0xbd53b63a	-0.051687457
93	0xbd130968	-0.035897642
94	0x3bab39d2	0.0052253986
95	0x3c91928f	0.01777008
96	0x3d6903d2	0.05688841
97	0x3ca04fff	0.019569395
98	0xbcd73dae	-0.026274528
99	0xbd165b60	-0.036708236
100	0x3d2b9bef	0.041896757
101	0x3cb601e3	0.022217697
102	0x3cd18102	0.025574211
103	0x3cb95a82	0.022626165
104	0x3bb1b7fa	0.005423543
105	0x3d20896a	0.03919355
106	0xbd8b0633	-0.06788292
107	0x3cbda0ae	0.023147907
108	0x3cedc47d	0.029024357
109	0xbd39d278	-0.045366734
110	0x3c15ae66	0.009135818
111	0x3d6b295a	0.057412483
112	0xbcfdff2a	-0.03100546
113	0x3d59e26a	0.05319444
114	0xbd7b4f9f	-0.06135523
115	0xbd84151e	-0.0644934
116	0x3d8ac756	0.067763016
117	0xbcca19e6	-0.024670552
118	0x3c7ab9a8	0.015303053
119	0xbd54c888	-0.051949054
120	0x3d2648b2	0.04059667
121	0xbd358799	-0.04431877
122	0xbcda0b4b	-0.026616713
123	0xbd68a451	-0.05679733
124	0xbd782401	-0.06058121
125	0xbd86d206	-0.065830275
126	0x3c7d5b32	0.015463637
127	0x3d581f61	0.0527643
128	0x3cec2ca8	0.028829888
129	0xbd3e153e	-0.046406977
130	0x3d8579f6	0.06517403
131	0xbcd57c3f	-0.026060222
132	0xbbeea08d	-0.0072823227
133	0x3ca1211d	0.01966911
134	0x3d5d87fd	0.054084767
135	0x3b7185be	0.0036853398
136	0xbcfaa777	-0.030597432
137	0x3d11b31b	0.0355712
138	0xbd2aec62	-0.04172934
139	0x3d734d32	0.05939979
140	0x3d66cd8d	0.056348372
141	0xbd0c28ab	-0.03421847
142	0xbd2c7c50	-0.04211074
143	0xbd4795e0	-0.048726916
144	0x3d03023f	0.031984564
145	0xbd3bc0ef	-0.045838293
146	0x3cc89b8e	0.024488237
147	0xbcbede52	-0.02329937
148	0xbcbf49b3	-0.023350572
149	0x3c57752e	0.013150496
150	0x3c876016	0.01652531
151	0x3d47d319	0.048785303
152	0xbc83797a	-0.016049135
153	0xbc83e195	-0.016098777
154	0xbd7aa7ca	-0.061195172
155	0xbc8c4053	-0.017120516
156	0x3d7c1a1f	0.06154835
157	0xbd319840	-0.043358088
158	0xbc41b8f5	-0.011823882
159	0x3d7254d2	0.059162922
160	0xbd7569c7	-0.05991533
161	0x3d454c3a	0.0481684
162	0x3c6bb542	0.014386477
163	0xbd4d139a	-0.05006752
164	0x3cf4554c	0.029825829
165	0xbd169734	-0.036765292
166	0x3c8bdf9a	0.017074395
167	0xbb41b6cf	-0.0029558425
168	0xbd439e83	-0.04775859
169	0xbd490c9a	-0.049084283
170	0xbd17c7ff	-0.037055966
171	0x3cdc21e0	0.026871622
172	0xbd38611e	-0.045014493
173	0x3ce06898	0.027393624
174	0x3bfee3c9	0.007778619
175	0x3d73c880	0.059517384
176	0x3d7a22ec	0.06106846
177	0xbd79ceef	-0.060988363
178	0xbd56d3f7	-0.05244824
179	0xbb9d7abb	-0.0048058904
180	0x3d0ac4f3	0.03387923
181	0xbcd31bd3	-0.025770104
182	0x3d4f59cd	0.05062275
183	0x3c7b390e	0.015333427
184	0x3d5a5fa3	0.053313863
185	0xbd2761b9	-0.04086468
186	0x3d4ca4ea	0.04996196
187	0xbd5a785c	-0.05333744
188	0x3d25bd9f	0.04046404
189	0x3cae1374	0.02124951
190	0xbc14dff5	-0.009086599
191	0x3cf51e97	0.029921813
192	0xbccc4f64	-0.0249402
193	0xbcd91a09	-0.026501672
194	0xbd28d190	-0.04121548
195	0xbd4e90d6	-0.050431095
196	0x3bae76c9	0.005324219
197	0xbc834249	-0.016022818
198	0x3d426088	0.04745534
199	0xbd0a572e	-0.033774547
200	0x3d3a8682	0.045538433
201	0xbd61f637	-0.05516645
202	0xbcff1bfb	-0.031141272
203	0x3d1103ca	0.035404004
204	0xba9c4355	-0.0011921922
205	0xbd6fd0c1	-0.058548693
206	0x3ca47d48	0.02007927
207	0x3c1a2071	0.009407149
208	0x3c792725	0.015207087
209	0xbb09eafc	-0.0021044603
210	0xbc9847e3	-0.018588966
211	0x3cb46671	0.022021504
212	0xbd43b791	-0.047782484
213	0xbcd9fef3	-0.026610827
214	0xbd71eed9	-0.059065674
215	0xbd447859	-0.047966335
216	0x3c94ab1f	0.018148003
217	0xbc6a8542	-0.014313998
218	0xbd0d9f2b	-0.034575623
219	0xbcf5f9b7	-0.0300263
220	0x3d5a7098	0.053330034
221	0x3d8563d7	0.065131836
222	0x3d26ae0f	0.04069334
223	0x3cd7774f	0.026302008
224	0xbc91c003	-0.017791754
225	0xbd1c7bd6	-0.038204037
226	0x3c1c386c	0.009534936
227	0xbd39882d	-0.045295883
228	0xbd0a3a1f	-0.033746835
229	0xbd369e7d	-0.04458474
230	0x3d869c01	0.06572724
231	0xbd40c59f	-0.047063466
232	0xbc53db6e	-0.012930734
233	0xbd364c70	-0.04450649
234	0xbc7dc982	-0.015489938
235	0x3d603387	0.05473664
236	0x3b6316f8	0.0034651142
237	0xbd1b138c	-0.03786044
238	0x3c5b9ea8	0.013404526
239	0xbd21b70f	-0.03948122
240	0x3d86fd41	0.06591273
241	0x3d422fa4	0.047408715
242	0x3ca663bb	0.020311227
243	0xbd03aaa6	-0.032145165
244	0xbcb531e5	-0.022118518
245	0xbc7b07e2	-0.015321704
246	0xbd72f2e6	-0.059313677
247	0xbd22eaa6	-0.03977456
248	0xbca3de76	-0.020003539
249	0xbd017895	-0.031609137
250	0xbd44ef43	-0.04807974
251	0x3c842e76	0.016135436
252	0xbd84442b	-0.064583145
253	0x3d87ff59	0.066405006
254	0xbcb2f588	-0.021845594
255	0x3d6b50b2	0.057450004

layer_norm1.weight f4 [33]
0	0x3f800000	1.0
1	0x3f800000	1.0
2	0x3f800000	1.0
3	0x3f800000	1.0
4	0x3f800000	1.0
5	0x3f800000	1.0
6	0x3f800000	1.0
7	0x3f800000	1.0
8	0x3f800000	1.0
9	0x3f800000	1.0
10	0x3f800000	1.0
11	0x3f800000	1.0
12	0x3f800000	1.0
13	0x3f800000	1.0
14	0x3f800000	1.0
15	0x3f800000	1.0
16	0x3f800000	1.0
17	0x3f800000	1.0
18	0x3f800000	1.0
19	0x3f800000	1.0
20	0x3f800000	1.0
21	0x3f800000	1.0
22	0x3f800000	1.0
23	0x3f800000	1.0
24	0x3f800000	1.0
25	0x3f800000	1.0
26	0x3f800000	1.0
27	0x3f800000	1.0
28	0x3f800000	1.0
29	0x3f800000	1.0
30	0x3f800000	1.0
31	0x3f800000	1.0
32	0x3f800000	1.0

layer_norm1.bias f4 [33]
0	0x00000000	0.0
1	0x00000000	0.0
2	0x00000000	0.0
3	0x00000000	0.0
4	0x00000000	0.0
5	0x00000000	0.0
6	0x00000000	0.0
7	0x00000000	0.0
8	0x00000000	0.0
9	0x00000000	0.0
10	0x00000000	0.0
11	0x00000000	0.0
12	0x00000000	0.0
13	0x00000000	0.0
14	0x00000000	0.0
15	0x00000000	0.0
16	0x00000000	0.0
17	0x00000000	0.0
18	0x00000000	0.0
19	0x00000000	0.0
20	0x00000000	0.0
21	0x00000000	0.0
22	0x00000000	0.0
23	0x00000000	0.0
24	0x00000000	0.0
25	0x00000000	0.0
26	0x00000000	0.0
27	0x00000000	0.0
28	0x00000000	0.0
29	0x00000000	0.0
30	0x00000000	0.0
31	0x00000000	0.0
32	0x00000000	0.0

cross_multi_head.weights_q.weight f4 [345, 33]
0	0x3ccc6159	0.024948763
1	0xbd9b4f3b	-0.075834714
2	0xbc51ff19	-0.012817168
3	0xbe1a4f9b	-0.1506943
4	0x3d0885f1	0.03333086
5	0xbd8afb7c	-0.06786248
6	0xbdb2d957	-0.087328605
7	0x3dbbf51a	0.09177609
8	0xbe240af4	-0.16019803
9	0x3dd73b0d	0.1050931
10	0xbe2b956e	-0.16756222
11	0xbcee16f1	-0.029063674
12	0x3d42db37	0.04757234
13	0xbe0d8d74	-0.13823491
14	0xbc244a35	-0.010027458
15	0xbe2d4e8c	-0.16924495
16	0xbe0445fa	-0.12917319
17	0x3e0c4419	0.13697852
18	0xbd21c683	-0.039495956
19	0xbd00aaff	-0.031413075
20	0x3dbedecb	0.09319838
21	0x3c410bf4	0.011782635
22	0x3c83f757	0.016109152
23	0x3cbe4ada	0.023229051
24	0xbd836702	-0.064161316
25	0xbe2908e2	-0.16507295
26	0x3dabec6f	0.083947055
27	0xbdd3afb1	-0.10336245
28	0x3e012874	0.12613088
29	0xbe1a25f1	-0.15053536
30	0x3dbe9f76	0.093077585
31	0x3cc7b97b	0.024380436
32	0xbb17e1a3	-0.0023175261
33	0x3e2f77fc	0.17135614
34	0x3b5765e2	0.0032867123
35	0xbc890bbe	-0.016729232
36	0xbdf6b875	-0.12046901
37	0xbd8dacc9	-0.06917722
38	0xbda53225	-0.08066205
39	0x3d50606c	0.050873205
40	0xbd0c5b96	-0.03426703
41	0xb9c326e5	-0.00037222277
42	0xbe299229	-0.16559662
43	0xbd98ec88	-0.0746699
44	0xbd83a9eb	-0.06428894
45	0xbdc52711	-0.09626592
46	0xbdf6dcc9	-0.1205383
47	0x3e15c1ae	0.14624664
48	0xbca8d844	-0.020610936
49	0xbe023968	-0.12717211
50	0xbda85fad	-0.08221374
51	0x3dc37881	0.09544469
52	0xbc9c1f7e	-0.019057985
53	0x3d2d486d	0.0423054
54	0x3de8d1c4	0.113681346
55	0x3e2fcdcc	0.17168349
56	0xbc8d408b	-0.01724269
57	0xbd16f565	-0.03685512
58	0x3dbbb4d0	0.091653466
59	0x3d11f9c6	0.035638593
60	0xbde090f9	-0.10965151
61	0x3df779b4	0.1208376
62	0x3dcf10f4	0.101106554
63	0x3d43559d	0.04768907
64	0xbd7f7e12	-0.06237609
65	0xbda59542	-0.08085109
66	0x3b87f7b3	0.004149401
67	0x3d522edc	0.05131422
68	0xbd19228d	-0.037386466
69	0xbe267b79	-0.16258039
70	0xbde22ec1	-0.11044074
71	0x3da31540	0.079630375
72	0xbe013807	-0.12619029
73	0x3df25cfa	0.1183414
74	0xbd00e05a	-0.03146396
75	0x3db92908	0.09041029
76	0xbd791b43	-0.060817014
77	0x3c49b918	0.012312196
78	0xbe07da30	-0.13266826
79	0xbdfd919a	-0.12381287
80	0xbe10f664	-0.1415649
81	0x3d3fb6a6	0.046805046
82	0x3e1e58d7	0.15463577
83	0x3e26e49d	0.16298147
84	0x3c84839a	0.016176034
85	0x3d941d0a	0.07232101
86	0xbc231137	-0.009952835
87	0xbd971ca0	-0.07378507
88	0xbdc946f2	-0.09827985
89	0xbdaaf53c	-0.08347556
90	0x3d8fae48	0.070156634
91	0xbe10be06	-0.14134988
92	0x3e262547	0.16225158
93	0x3d869937	0.06572192
94	0x3e15ab4e	0.14616129
95	0xbd969c92	-0.07354082
96	0xbd9173e3	-0.07102182
97	0xbdb1c979	-0.08681006
98	0x3e022f08	0.12713253
99	0xbd3905ec	-0.045171663
100	0xbb063345	-0.0020477336
101	0xbd974d2c	-0.07387766
102	0x3dc0d6bd	0.09415958
103	0xbce3c2b4	-0.027802803
104	0xbd897278	-0.06711286
105	0x3e2d6761	0.16933967
106	0x3d98c9a4	0.07460335
107	0x3e225492	0.15852574
108	0x3cf5b923	0.029995507
109	0x3c9fca99	0.019505786
110	0x3cd18f4c	0.025581025
111	0x3e16ec4d	0.14738579
112	0xbd9164b5	-0.070992865
113	0x3d1535a5	0.036428113
114	0xbe1cad47	-0.15300475
115	0x3db99317	0.09061258
116	0x3dc36c8f	0.0954219
117	0x3e24a7fb	0.16079704
118	0xbe0c312b	-0.13690631
119	0x3decbaab	0.115590416
120	0xbe265c63	-0.1624618
121	0x3c938b8b	0.018010875
122	0x3d50141d	0.05080043
123	0x3c3e8183	0.011627558
124	0xbe1ed86c	-0.15512246
125	0xbd65dad2	-0.056116886
126	0x3e25d61d	0.16194959
127	0xbdcf6749	-0.10127122
128	0xbd285d64	-0.04110469
129	0xbe0ae644	-0.13564402
130	0xbcf3fbb8	-0.029783115
131	0xbcd7f9e5	-0.026364276
132	0xbdf0f848	-0.11766106
133	0xbd045625	-0.032308716
134	0x3da000a3	0.078126214
135	0x3d156d27	0.03648105
136	0x3e0bd7c6	0.1365653
137	0x3e212d03	0.15739827
138	0xbdc03d79	-0.09386725
139	0x3e1c364d	0.15255089
140	0x3df2bd57	0.1185252
141	0xbbc78900	-0.0060893297
142	0xbe1dc56b	-0.1540734
143	0x3c983f29	0.018584805
144	0xbdd0930c	-0.10184297
145	0x3b7a18b8	0.0038161706
146	0x3d888702	0.06666376
147	0xbc7fb2af	-0.015606566
148	0x3de2973f	0.11064004
149	0xbdb89995	-0.090136684
150	0x3d4d9b78	0.050197095
151	0xbe2e48be	-0.17019936
152	0xbb078607	-0.0020679252
153	0xbe07c4ac	-0.13258618
154	0xbdd8e38a	-0.10590275
155	0x3d8c00b2	0.0683607
156	0x39bb3b3d	0.00035711555
157	0x3cedb38b	0.029016277
158	0xbd83e4e6	-0.06440143
159	0xbd80f7fe	-0.06297301
160	0xbe0c62a6	-0.13709506
161	0xbd6d782f	-0.057975944
162	0xbafea3e8	-0.001942751
163	0xbe072b71	-0.13200165
164	0x3c12183d	0.008916912
165	0xbe176f81	-0.14788629
166	0xbdfb800f	-0.122802846
167	0xbd53cdc6	-0.051709913
168	0xbdd176a7	-0.10227709
169	0x3d0f0963	0.03492106
170	0xbda301bf	-0.079593174
171	0x3d8dfb3e	0.06932686
172	0x3de07d4b	0.10961398
173	0x3e042e92	0.1290839
174	0x3e1b10b9	0.15143098
175	0x3d27bbac	0.040950462
176	0xbdad33eb	-0.08457168
177	0xbcf57a14	-0.029965438
178	0xbcb60af1	-0.022222014
179	0xbcdf8581	-0.02728534
180	0xbdbe20bc	-0.09283587
181	0x3dc889a5	0.097918786
182	0x3d0e2f02	0.0347128
183	0xbd0a406d	-0.033752847
184	0x3beab12a	0.007162233
185	0xbd1188d7	-0.03553089
186	0xbe060365	-0.13087232
187	0x3d993baf	0.07482087
188	0x3e00abb4	0.125655
189	0x3d01fbf8	0.031734437
190	0xbdead609	-0.11466605
191	0x3e2327c4	0.15933138
192	0xbd885baa	-0.066581085
193	0xbde18f10	-0.11013615
194	0x3e1328e8	0.14371073
195	0x3c6d4d46	0.014483755
196	0xbe2890d1	-0.16461493
197	0x3d89c3cc	0.067267984
198	0xbe0f22a7	-0.13978063
199	0x3ca5ccca	0.020239253
200	0xbe22c9f1	-0.15897347
201	0xbe269abb	-0.16269962
202	0x3e2806ac	0.16408795
203	0x3e1f07c0	0.155303
204	0x3dd87e77	0.10570996
205	0x3e25d0bd	0.16192909
206	0x3dcb4517	0.09925287
207	0x3e2a1a33	0.16611557
208	0x3cefa0e1	0.029251518
209	0xbd46d3a8	-0.048541695
210	0x3c1cb048	0.009563513
211	0xba6f7b5e	-0.00091355096
212	0x3d45973f	0.048239943
213	0x3cd0e2df	0.025498806
214	0x3dc13f27	0.094358735
215	0x3d9d9b51	0.0769564
216	0xbca1f229	-0.019768791
217	0x3df23e54	0.118282944
218	0x3e2b8c3e	0.16752717
219	0xbcab6a8a	-0.020924825
220	0xbd94884b	-0.07252558
221	0x3cbbb666	0.022914123
222	0x3d558e92	0.05213792
223	0x3e27e784	0.1639691
224	0xbda45459	-0.080239005
225	0x3d9ff3c4	0.078101665
226	0x3cdcd560	0.026957214
227	0x3df20847	0.11817985
228	0xbddd9973	-0.10820284
229	0xbd2e691d	-0.042580713
230	0xbde95ba0	-0.11394429
231	0xbe03b3ff	-0.12861632
232	0xbdfe09bd	-0.12404201
233	0xbd204495	-0.039127905
234	0x3d456628	0.048193127
235	0x3dc2bdc4	0.09508851
236	0xbdb3aa07	-0.087726645
237	0xbe01eccd	-0.12687989
238	0xbd9e2a8d	-0.0772296
239	0x3e0b197a	0.13583937
240	0xbdfab247	-0.12241035
241	0x3dcf7729	0.1013015
242	0x3d94d4c2	0.07267143
243	0xbe1ef4b0	-0.15523028
244	0x3d0d3fb7	0.03448459
245	0x3e058303	0.13038258
246	0xbe05f652	-0.13082245
247	0xbd255c3a	-0.040371157
248	0xbda52de9	-0.08065397
249	0x3de7e044	0.11322072
250	0x3de71999	0.11284179
251	0xbd9c678a	-0.07636936
252	0x3cfd4fcd	0.030921841
253	0x3df243c2	0.1182933
254	0x3d6c804c	0.05773954
255	0x3da317be	0.07963513

cross_multi_head.weights_k.weight f4 [345, 33]
0	0xbc21bf98	-0.00987234
1	0x3e142699	0.14467849
2	0x3d01f021	0.031723145
3	0xbdc211da	-0.09476061
4	0xbe1efb13	-0.15525465
5	0x3d0fe302	0.0351286
6	0xbd1b4c66	-0.037914656
7	0x3e192d0a	0.14958587
8	0x3c3818d4	0.011236388
9	0x3db8c411	0.09021772
10	0x3d1f8456	0.038944565
11	0x3c4bfeb0	0.012450859
12	0xbe1b9b6c	-0.15196007
13	0xbe1aac5a	-0.1510481
14	0xbe15a0ad	-0.14612074
15	0xbd754b4c	-0.05988626
16	0x3d599954	0.05312474
17	0x3ce4b78b	0.027919551
18	0x3debdfb6	0.11517279
19	0xbd884f59	-0.06655759
20	0xbe24d73a	-0.16097727
21	0x3e2f1019	0.17095985
22	0x3dbfb97b	0.093615495
23	0x3dcad942	0.0990472
24	0x3d9c629c	0.07635996
25	0x3d8f304e	0.06991635
26	0x3dad0b94	0.08449474
27	0x3ab5042b	0.0013810446
28	0x3db61d2f	0.08892285
29	0xbe1b1b68	-0.15147173
30	0xbe0b5eb9	-0.13610353
31	0xbddcf54e	-0.10788976
32	0xbdcf54a0	-0.10123563
33	0x3cbf76a8	0.02337201
34	0xbd57ef36	-0.052718364
35	0xbe200f14	-0.15630752
36	0xbdad1859	-0.084519096
37	0x3dbc032b	0.09180292
38	0x3dd8c43a	0.10584302
39	0x3e2d7e71	0.16942765
40	0xbe2f42d6	-0.1711534
41	0x3cdb9d41	0.026808383
42	0x3d490208	0.049074203
43	0x3be42dd9	0.0069634733
44	0x3dcd667c	0.10029313
45	0xbd193b0d	-0.03740983
46	0xbda06b8b	-0.07833012
47	0xbe199b9f	-0.15000771
48	0xbe1fa3d9	-0.15589847
49	0xbd7ee02e	-0.062225513
50	0x3e165fb7	0.1468495
51	0x3e1dc28d	0.15406246
52	0x3d0b562b	0.034017723
53	0xbd4696cb	-0.04848365
54	0x3df9cfbf	0.121978275
55	0x3dab4aa4	0.08363846
56	0xbcfe9833	-0.031078434
57	0xbb0a8345	-0.0021135372
58	0xbbdb54ec	-0.006693473
59	0xbda06de7	-0.07833462
60	0xbdb39df0	-0.087703586
61	0xbd3af8d4	-0.045647457
62	0x3e088c0d	0.13334675
63	0x3e1bc90a	0.15213409
64	0x3e06ec5f	0.13176106
65	0x3d7d371b	0.06182013
66	0x3dcc591f	0.09977936
67	0xbe289028	-0.16461241
68	0xbcf5575a	-0.029948879
69	0x3ccbd18f	0.024880199
70	0xbb6257d7	-0.003453722
71	0xbc6eca81	-0.014574648
72	0xbe0b8a1f	-0.13626908
73	0xbcb5965a	-0.02216642
74	0x3d1e39a1	0.038629178
75	0xbd7653f5	-0.06013866
76	0xbe193a37	-0.14963613
77	0x3d4483ec	0.047977373
78	0xbd4545f9	-0.048162434
79	0x3e00809f	0.12549065
80	0x3de26c8b	0.11055859
81	0x3e0ae655	0.13564427
82	0xbd054210	-0.032533705
83	0x3d91434c	0.07092914
84	0x3e13aacc	0.14420623
85	0xbe2bc85e	-0.16775653
86	0x3de0acc3	0.10970452
87	0x3d800522	0.06250979
88	0x3ca97c77	0.020689232
89	0x3ca013ed	0.019540751
90	0x3cc0f504	0.023554333
91	0xbda60c89	-0.0810786
92	0x3d798e00	0.060926437
93	0x3df5c648	0.1200071
94	0xbc1b2ef6	-0.009471646
95	0x3dabfcf3	0.083978556
96	0x3d3ada84	0.04561855
97	0x3cdf696f	0.027271954
98	0x3d88cbd0	0.06679499
99	0xbe2204f5	-0.15822203
100	0xb9f9ebcf	-0.00047668672
101	0xbdb61ffb	-0.088928185
102	0x3c0f94c2	0.008763494
103	0xbe1a33d6	-0.15058836
104	0xbb2e1172	-0.0026560691
105	0x3dead4b5	0.11466352
106	0x3e286949	0.16446413
107	0xbd9728d5	-0.07380835
108	0x3e30ac36	0.17253193
109	0xbb0553c1	-0.002034411
110	0xbe0f0132	-0.139653
111	0xbda2e6df	-0.079541914
112	0x3ba605c2	0.0050666044
113	0xbdc26279	-0.094914384
114	0x3e15b724	0.14620644
115	0x3e115e00	0.14196014
116	0xba5b7258	-0.00083712256
117	0xbdc22408	-0.09479529
118	0x3da44f15	0.08022896
119	0xbdf90d37	-0.12160724
120	0x3c5fd604	0.013661865
121	0x3e03942d	0.12849493
122	0x3c2314c9	0.009953686
123	0xbe1c1597	-0.15242611
124	0xbda9b585	-0.08286575
125	0xbd9faf58	-0.07797116
126	0x3d8f11be	0.06985806
127	0xbd94d925	-0.072679795
128	0xbda6da91	-0.08147157
129	0x3dd60f95	0.10452191
130	0x3d8d6e13	0.069057606
131	0xbd932db5	-0.07186452
132	0xbe2e2d6f	-0.17009519
133	0x3e31f93a	0.17380229
134	0x3d875918	0.0660879
135	0xbda9e561	-0.08295704
136	0x3d82cbad	0.06386504
137	0x3e305b6b	0.17222373
138	0xbd049223	-0.03236593
139	0xbc5a233e	-0.013314066
140	0x3c9ce311	0.019151242
141	0x3e06d4cc	0.13167113
142	0xbe2215cb	-0.15828626
143	0x3d6ae1a5	0.057344098
144	0x3cad812d	0.02117976
145	0xbbb911ac	-0.0056478586
146	0xbd8dabc6	-0.06917529
147	0x3e1bfe94	0.15233833
148	0x3b84b4d2	0.004049876
149	0xbe0fd78d	-0.1404707
150	0x3df01293	0.11722293
151	0x3e252c53	0.1613019
152	0xbbc31873	-0.0059538423
153	0x3dedd74e	0.11613332
154	0xbdcc8c50	-0.099877
155	0x3d5a24b9	0.053257678
156	0xbe19f0ae	-0.15033218
157	0x3cfd687a	0.030933607
158	0x3dc4c3cf	0.0960766
159	0x3d629322	0.055316098
160	0xbde8e3f2	-0.11371602
161	0xbd4a0093	-0.049316954
162	0x3da056fd	0.07829092
163	0x3e0f4210	0.13990045
164	0xbe305291	-0.17218997
165	0xba11bf1c	-0.00055597886
166	0xbe27b136	-0.16376194
167	0xbded4d11	-0.11586965
168	0x3d611c42	0.05495859
169	0xbe0505fe	-0.12990567
170	0xbdd568ce	-0.104203805
171	0x3e258274	0.16163045
172	0x3aad4cbc	0.0013221721
173	0x3e163c5f	0.14671467
174	0xbca90666	-0.020632934
175	0xbd9b8d98	-0.07595366
176	0xbe12bc35	-0.14329608
177	0xbd929515	-0.071573414
178	0xbdd185e8	-0.10230619
179	0x3de1c43e	0.11023758
180	0xbd4100eb	-0.047120016
181	0x3d710242	0.058840044
182	0x3ca7f3a9	0.020501928
183	0xbe242c28	-0.1603247
184	0x3dbeeb43	0.09322216
185	0xbc25e5d0	-0.010125592
186	0xbc29abf2	-0.010355936
187	0xbc840993	-0.016117847
188	0xbe1ab734	-0.15108949
189	0x3cb56337	0.022142036
190	0x3d0284f7	0.031865086
191	0xbcecc547	-0.028902663
192	0x3dfd8628	0.12379104
193	0xbccf2a5f	-0.025288759
194	0xbd8fb666	-0.070172116
195	0x3c9c6f64	0.019096084
196	0x3da65294	0.08121219
197	0x3e1dfba2	0.15428022
198	0xbcfd404f	-0.030914454
199	0x3d7ae326	0.061251782
200	0xbd153e6f	-0.036436494
201	0x3e0fc91e	0.14041564
202	0xbd1db3eb	-0.03850166
203	0x3e135a1f	0.14389847
204	0x3e1ce516	0.15321764
205	0x3de4d297	0.11172979
206	0xbd983d7c	-0.07433602
207	0x3e248690	0.16066957
208	0x3d9fbeec	0.07800087
209	0x3d9a2b05	0.075277366
210	0x3e11db0e	0.14243719
211	0xbdab5af0	-0.08366954
212	0x3e28d417	0.16487156
213	0x3cd76151	0.026291521
214	0x3e238e90	0.15972352
215	0x3d2a60e6	0.041596316
216	0xbe22d7b2	-0.15902594
217	0x3d5e7bdc	0.05431734
218	0xbd9a1460	-0.075234175
219	0x3df72e27	0.1206935
220	0x3d3df7e7	0.046378996
221	0x3d7691d8	0.06019768
222	0x3e211010	0.15728784
223	0xbd1d6e38	-0.03843519
224	0xbcd028f5	-0.025410155
225	0xbb053577	-0.0020326057
226	0x3d309d63	0.043118846
227	0xbe2d951c	-0.16951412
228	0xbdc21988	-0.09477526
229	0xbe206e98	-0.15667188
230	0xbddb0036	-0.106933996
231	0xbe1cdfc7	-0.1531974
232	0x3db59dcb	0.08867987
233	0xbe2098bf	-0.15683268
234	0x3d413414	0.047168806
235	0xbc2ab65f	-0.010419457
236	0x3bd34fad	0.006448707
237	0xbdd06cf8	-0.10177034
238	0x3dbdaa5f	0.09261011
239	0x3dcab1f9	0.09897227
240	0xbdea111f	-0.11429047
241	0xbdc31bd2	-0.09526791
242	0xbe132a38	-0.14371574
243	0xbdff8ab9	-0.12477631
244	0xbe1ecfcf	-0.1550896
245	0x3dab34f5	0.0835971
246	0x3c82ba79	0.015958058
247	0xbd058dbf	-0.032605883
248	0xbbf7deca	-0.0075644003
249	0xbe1a6f51	-0.15081526
250	0xbd3f4e08	-0.046705276
251	0x3cc49ba4	0.023999996
252	0x3dd8becc	0.105832666
253	0x3d19642d	0.03744905
254	0xbd0e4fd2	-0.03474409
255	0xbd7bedf8	-0.06150624

cross_multi_head.weights_v.weight f4 [215, 33]
0	0xbe02e93f	-0.12784289
1	0x3dac8ca7	0.08425265
2	0xbc67998c	-0.0141357295
3	0xbc8e4bed	-0.017370189
4	0xbd989ae4	-0.07451418
5	0xbe246692	-0.16054752
6	0xbe1663e4	-0.14686543
7	0xbd7ef1ce	-0.06224232
8	0xbcdf1bed	-0.027234996
9	0xbd681f42	-0.056670435
10	0xbdee2c34	-0.11629525
11	0xbc0f331a	-0.008740211
12	0xbddf641d	-0.10907767
13	0x3d9d2f3a	0.076750234
14	0xbdd535e9	-0.10410673
15	0x3b99a8ad	0.004689297
16	0xb9a55ce7	-0.0003154047
17	0x3cb42d7d	0.021994347
18	0xbe006367	-0.12537919
19	0xbd4a98fb	-0.0494623
20	0x3da74f9d	0.08169482
21	0xbdd1f018	-0.102508724
22	0x3dd86dbe	0.10567807
23	0xbe150dac	-0.14555997
24	0x3e0d1170	0.13776183
25	0x3e17c5ed	0.14821596
26	0x3dfcd791	0.123458035
27	0xbdbc8157	-0.09204357
28	0xbd40eb88	-0.04709962
29	0xbcaf3ce7	-0.021391345
30	0x3d0276d8	0.03185162
31	0x3deae418	0.11469287
32	0xbd826451	-0.0636679
33	0x3d2ac869	0.041695032
34	0xbd49f711	-0.049307887
35	0xbd769004	-0.060195938
36	0xbe2d2351	-0.16908003
37	0x3db89735	0.090132155
38	0x3d39b2a1	0.04533637
39	0x3d1f00d2	0.03881914
40	0xbcb2ad6e	-0.021811213
41	0xbdb969ae	-0.0905336
42	0x3d8ee571	0.06977356
43	0x3d685b3b	0.05672763
44	0x3e155724	0.14584023
45	0xbe15a652	-0.14614227
46	0x3e152b92	0.14567402
47	0xbdaaefd1	-0.083465226
48	0xbc70c111	-0.014694468
49	0xbd8d0448	-0.06885582
50	0xbe0cea43	-0.13761239
51	0x3d05ab5c	0.032634124
52	0x3dfb32ac	0.12265524
53	0x3db78267	0.08960419
54	0x3d4870a7	0.04893556
55	0x3d9bf6c2	0.07615425
56	0xbddd041d	-0.107918
57	0x3d3ec99f	0.046579
58	0xbe0e6ae4	-0.13907963
59	0x3e1c9a3d	0.15293212
60	0x3e1f4ee7	0.15557443
61	0x3df768da	0.12080546
62	0x3de31170	0.1108731
63	0xbcb3a266	-0.021928024
64	0xbd0528f4	-0.03250976
65	0x3e1ac928	0.15115798
66	0xbe0efe78	-0.1396426
67	0xbd80c5d9	-0.062877364
68	0xbe04c729	-0.12966599
69	0xbca7ab54	-0.020467438
70	0xbe02522e	-0.12726662
71	0xbdfa248e	-0.122140035
72	0x3dacbd8f	0.08434593
73	0xbdafb568	-0.08579522
74	0x3dfbb897	0.12291067
75	0x3dd8e4ca	0.10590513
76	0xbd4688ac	-0.048470184
77	0x3e236a22	0.15958455
78	0xbe23b862	-0.15988305
79	0xbd3ea16e	-0.04654067
80	0x3d9f5ec7	0.07781749
81	0xbd2d122e	-0.042253666
82	0x3e12854f	0.14308666
83	0x3d0b6ecc	0.03404121
84	0xbcc4eb3d	-0.024037952
85	0xbe01c629	-0.12673248
86	0xbdeec553	-0.1165873
87	0x3cf863df	0.03032106
88	0x3e264125	0.16235788
89	0xbd6d4233	-0.05792446
90	0x3db8fedc	0.090329856
91	0x3ced65dd	0.028979236
92	0xbd99573e	-0.07487343
93	0xbc23f5de	-0.01000735
94	0xbdbf593c	-0.09343192
95	0x3d2de7e8	0.04245749
96	0x3cedce01	0.029028894
97	0x3e07acd0	0.13249516
98	0xbd164d9b	-0.036695104
99	0xbb80f54e	-0.0039354926
100	0xbdd35e82	-0.1032076
101	0x3d9b6894	0.07588306
102	0x3daecca5	0.085351266
103	0xbe2e9bc7	-0.17051612
104	0x3ce30e88	0.02771689
105	0x3e2dbb97	0.16966091
106	0x3b4ab21d	0.0030928918
107	0x3e1c8035	0.15283282
108	0x3dee161e	0.11625312
109	0xbbb2c189	-0.0054552
110	0x3de7a399	0.11310501
111	0x3d910fd0	0.07083094
112	0xbdf8c698	-0.12147254
113	0xbb96e724	-0.004605191
114	0xbd1ed9bd	-0.03878187
115	0xbe19e6b3	-0.15029411
116	0xbd47fda2	-0.048825867
117	0x3e22753d	0.15865035
118	0x3db521e7	0.08844357
119	0xbba0d3a1	-0.0049080406
120	0x3e2b8a66	0.16752014
121	0xbe132a71	-0.14371659
122	0x3d8fccfa	0.07021518
123	0xbd7fac97	-0.062420454
124	0x3d621462	0.05519522
125	0xbca84e18	-0.02054505
126	0x3e12b476	0.14326653
127	0x3e2497e2	0.16073564
128	0xbdc889fe	-0.09791945
129	0x3d896c6c	0.06710133
130	0x3d8373f4	0.06418601
131	0xbd1822a2	-0.037142403
132	0x3d605f0e	0.05477815
133	0xbe1460e0	-0.1449008
134	0x3e20b607	0.15694438
135	0xbe2aa6c6	-0.16665182
136	0x3d852159	0.06500501
137	0x3db6258a	0.08893879
138	0xbe10c133	-0.141362
139	0xbdea42c1	-0.114385135
140	0xbe051a96	-0.12998423
141	0xbc77afb3	-0.015117574
142	0xbd70385a	-0.05864749
143	0x3e202d63	0.15642314
144	0xbde8944b	-0.1135641
145	0x3dc85537	0.097818784
146	0xbd8a3933	-0.06749191
147	0x3d87b49a	0.06626244
148	0x3dc8b2c0	0.09799719
149	0x3d0d97c2	0.034568556
150	0x3dd0e2c6	0.101995036
151	0xbde8e077	-0.11370938
152	0x3dfba0e5	0.122865476
153	0x3d4a2cd0	0.049359143
154	0x3d393ebd	0.045225848
155	0xbe0694f7	-0.13142763
156	0xbc84ddfe	-0.016219135
157	0xbde882c7	-0.11353069
158	0x3d854174	0.06506625
159	0x3de1e6b3	0.110303305
160	0x3e2d3722	0.16915563
161	0xbddcd74d	-0.10783253
162	0xbcf9905f	-0.03046435
163	0x3d84f203	0.064914726
164	0x3deb7630	0.11497152
165	0x3dfc4571	0.123179324
166	0xbe14c78e	-0.14529249
167	0x3df3a552	0.11896767
168	0x3dbdd4d9	0.09269113
169	0x3d3e2e42	0.046430834
170	0xbd66f71c	-0.056388006
171	0x3e161c5e	0.14659259
172	0x3c7347c4	0.014848653
173	0xbe05d63f	-0.1307001
174	0x3dd7ad98	0.10531157
175	0x3ca0fd0f	0.019651918
176	0x3d68924d	0.05678015
177	0xbb0ae19f	-0.002119161
178	0x3e1657d6	0.14681944
179	0x3d3946e5	0.045233626
180	0x3e317446	0.17329511
181	0x3c6f3a16	0.014601251
182	0x3de535c8	0.111918986
183	0x3deb44ef	0.114877574
184	0xbd9ba512	-0.07599844
185	0x3db6a01d	0.08917258
186	0x3e1b0035	0.15136798
187	0xbe08a484	-0.13344008
188	0x3e1e4a93	0.15458135
189	0x3d92450a	0.071420744
190	0xbd34efc8	-0.044173986
191	0x3e0ed9bf	0.13950251
192	0xbdc476e6	-0.095929906
193	0x3d8d882d	0.06910739
194	0xbd165f2f	-0.036711868
195	0xbd91112a	-0.07083352
196	0xbe1bf35e	-0.15229556
197	0xbe10f0ee	-0.14154407
198	0xbdcc2a51	-0.09969009
199	0xbe081e90	-0.13292909
200	0x3d37e98b	0.04490046
201	0xbcbb2817	-0.022846265
202	0x3dd6b949	0.10484559
203	0xbe067c9e	-0.13133475
204	0xbe090b78	-0.13383281
205	0x3dd21f88	0.1025992
206	0xbdbf9749	-0.09355027
207	0xbd93f07d	-0.07223604
208	0x3e026f3d	0.12737747
209	0xbe24e89d	-0.1610436
210	0x3c9e5d2a	0.019331533
211	0xbe1347dc	-0.14382881
212	0x3c336959	0.01095041
213	0x3dae8513	0.08521476
214	0xbdb2a7e7	-0.08723431
215	0xbe085c59	-0.13316478
216	0xbe2b8870	-0.16751266
217	0x3e166caf	0.14689897
218	0x3a3ce82b	0.00072062266
219	0xbdb8205b	-0.08990546
220	0x3cc8ab9f	0.024495898
221	0xbe00d456	-0.12581
222	0xbd7d4925	-0.061837334
223	0x3c84ab99	0.016195105
224	0x3de7e52c	0.11323008
225	0xbc8f75a5	-0.017512152
226	0xbdf2fe9c	-0.11864969
227	0xbe28289b	-0.1642174
228	0x3ddc95d0	0.10770762
229	0x3ddebc2f	0.10875737
230	0xbdb30ce9	-0.08742697
231	0xbc878ec6	-0.016547572
232	0xbdcef0f5	-0.10104553
233	0xbe2f6485	-0.17128189
234	0xbbd8a3c0	-0.0066113174
235	0x3cab59f6	0.02091692
236	0x3df53506	0.11973004
237	0xbdaaed42	-0.083460346
238	0xbd4a71af	-0.049424823
239	0xbe16c793	-0.14724569
240	0xbd8a9423	-0.06766536
241	0xbd0bcab1	-0.03412885
242	0xbdedf827	-0.11619597
243	0x3e276e31	0.16350628
244	0x3d74b0a1	0.05973876
245	0xbbe53271	-0.0069945385
246	0x3d94698c	0.07246694
247	0x3d5f0e69	0.054457102
248	0x3e323a01	0.17404939
249	0x3d680e87	0.05665448
250	0x3c42d36d	0.011891228
251	0x3dab7b97	0.08373182
252	0x3d28049c	0.04102002
253	0x3e1046b2	0.14089468
254	0xbd47c1af	-0.048768695
255	0xbde47cb2	-0.11156596
